Reinforcement_Learning/KHW/pendulum_target_critic.pt (torch, 337896 bytes, 11 tensors)

state_layer.0.weight f4 [16, 3]
00000000: d743 a9bf 3338 f9be 6c14 a13d 5e82 a43b
00000010: 3bba 56bf 21f8 21be e69f abbe f7b6 9e3f
00000020: 907a 743e eb7f d3bd 7207 9ebf d52d a4be
00000030: 6bf3 e83e e730 853f 7b90 493e 7624 263e
00000040: 3cd3 09be 0caf 083d fc59 26be 6205 e23f
00000050: ad24 d33e 782a f93d c10c 43bf 896f 9d3e
00000060: a6ed 403e 553a 02c0 f80e 9dbe d263 74be
00000070: d2ce f03e 4a81 9b3e bb9f 4c3e 182f 633e
00000080: d0d9 52be f8ec 9f3f 9087 773f 1e62 7d3e
00000090: ef2e c1be 40b3 193e 2dd0 943e 8531 57bf
000000a0: c4bf 743f 14af 883e 7117 20be b1a0 d43e
000000b0: 24f3 b1bd 0e02 df3f 53a0 96bf db5c e9be
-1.3223828 -0.4867569 0.07865223 0.005020424 -0.83877915 -0.1581731 -0.3352043 1.2399586
0.23874879 -0.10327133 -1.2346022 -0.32066217 0.45498213 1.0405549 0.19684021 0.16224846
-0.13459486 0.033370063 -0.16245264 1.7657893 0.4123892 0.121663034 -0.76191336 0.30749157
0.18840656 -2.0348103 -0.30675483 -0.23866203 0.4703279 0.30372077 0.19982807 0.22185934
-0.20590901 1.2494192 0.96691227 0.2474446 -0.3773112 0.15009785 0.29065076 -0.84059936
0.9560511 0.26696074 -0.15633942 0.41528848 -0.086889535 1.7422502 -1.1767677 -0.45578656

state_layer.0.bias f4 [16]
00000000: 57db 02be 77ff 2fbd 730a a83d 0415 003c
00000010: 26e6 d63e 4d56 03bf f7fa 7dbe 6389 983d
00000020: ac10 353e 4edb 0abf bd81 253f 75fe a33e
00000030: ac96 1dbf c985 0c3f e473 76be 16bb 8bbe
-0.12778984 -0.04296824 0.08205118 0.0078175105 0.41972464 -0.5130356 -0.24802767 0.074480794
0.17682141 -0.5424088 0.6465109 0.32030073 -0.6155803 0.5489164 -0.24067646 -0.27291173

state_layer.2.weight f4 [32, 16]
00000000: 596b 07bf 4787 f23e fe4e c83c e436 e83e
00000010: a841 1bbd bcfd 043e 5bc3 ac3e 11ce 91bd
00000020: da59 5d3e d887 ffbe 701b 6bbc 6fa9 f8bd
00000030: 4153 31bf 70c0 ac3e 0f58 26be 5788 73be
00000040: 9756 843d 4bd4 2a3e 284b 263f 532c e0bb
00000050: 9df3 a73d 5869 b3bd 43c8 973e 02a3 d9bd
00000060: 4335 0bba 02d7 0d3e 7e46 72be a29d d13d
00000070: 212a b8be 538d bd3e b848 f13d 24fc 973e
00000080: 9081 e23e 4f32 a53e d4ca f73e 8589 4d3d
00000090: 06d8 8cbe 8472 0b3e 62f0 d2be 7361 b1bd
000000a0: 3017 463e 5879 6c3e 15fe 19bf b22f 75bf
000000b0: 8a4c 663e 5721 3bbe cb84 6dbe 67a2 2c3f
000000c0: 6fad 603d 4760 a43e fb34 89be 0f4e d33e
000000d0: b457 933e 8a2b eebd 1416 063e 3405 63be
000000e0: 0b9b e83c ba0c 34bd 96ab 213e c8f6 323f
000000f0: 212f 9f3e 78d1 92bd 88fb 053e 0c5e 8fbe
00000100: 0273 5bbe 5fde d0bd 3a89 1b3e 5b46 43bd
00000110: d5ce 55bf 7ca6 453e 265a debf 170f 0cbf
00000120: 229e 64be 94bc 89bf e16a abbe f5d4 2c3e
00000130: 80f6 cbbe 2a4a 943e 7ea6 f5be 0cbf a73e
00000140: bdfd 63be d4fa 76be 61b6 05bf 151a 93be
00000150: 4535 01bf 6c0c 4c3e b498 3ebf a19b 5b3f
00000160: 0acf ea3d fa03 393e 4967 a83e d776 04bf
00000170: 8282 0b3e 7474 f3be 3ffd dfbc 0c53 833f
00000180: 8694 b2bd cbb6 ca3d af15 a73e 7749 80bd
00000190: 7e2b 503d 81fd cebd 856e 253d 1a10 0bbf
000001a0: 6ebc 6fbe 64b8 36be 2200 91be 72f4 29bb
000001b0: a83a c6bb 4522 093d 51d2 b7bd 20c7 e33e
000001c0: e01c 98be 51e7 cabe f1e0 19be 1ff0 5f3e
000001d0: e3c1 493c 842f 81bd 6e00 1b3e 94e0 6a3e
000001e0: 0f6e 12be d867 9c3e d664 053f dbfc bc3e
000001f0: ca31 833e 7591 83be 2025 5d3e 437b abbe
00000200: 4528 cf3d 5f23 fcbd 395b 0a3e 35ac 42be
00000210: 9b08 17be f4b1 043e dbb8 7fbe 40aa 92bd
00000220: ac15 753d 1ded a7be 7a19 b6be ab8d 86be
00000230: 7864 e1bd cce0 a13e 5827 01be fe11 c13e
00000240: 02f3 3a3c f3df b23d 4fe0 b43e 1a5e be3c
00000250: 82ed b13c 68af cb3a 6075 3c3e 5234 993e
00000260: d6ef a4bd 8569 7d3e cfd4 073e 26e0 eabd
00000270: 074d 84bc 03ab 0d3e 4e4d ab3e f5a6 ac3e
00000280: 917d 943e 3ea7 4bbf f5c1 c2be 889e 9bbe
00000290: 65cb 2e3e f806 2dbe 3c16 45be d0b3 483e
000002a0: 1e1c 42be 873e ad3e e77e 7a3e 352d cebd
000002b0: 6c08 e23e 7d4d 3cbe ea7c 59be 5e99 bfbc
000002c0: 39dd 713e 7df6 ca3e 1e11 9dbd 6ec2 07be
000002d0: 7e3c 8dbf da9c 66be 6963 aebe 7b7c 50bf
000002e0: b2a7 2d3e 25c1 5b3d 5129 f2be c188 073e
000002f0: 668f d13e 8808 bf3e 4692 9dbf 13b7 f2bd
00000300: 353f 953e eaca c7be af09 0fbf ac0e 9ebe
00000310: bf36 aebe 4206 59be a3ff 4abf 2ab8 483e
00000320: 3693 d03e f989 7cbe b1ad 19be ba48 21be
00000330: 5025 cd3b 61ae d1be 85a2 a7be 4817 f93e
00000340: 267e 313d a8b8 51be a4f6 47bd 0ff7 c63c
00000350: 1917 82bc 2dc8 153e d91c 723d 123e aa3e
00000360: a081 873e 904b 1b3e 2ff7 b1be c91b 0ebe
00000370: 5a64 05bf f44c 5d3e 8e2f 673a b537 db3e
00000380: 5ad1 37be 48ce 27be 4189 4f3e adc1 74be
00000390: 0598 dc3d 7c39 fa3d 236d abbe 7516 5d3f
000003a0: 24d3 6cbd a393 c33e c236 193f ab48 503e
000003b0: e7b2 f63e 9b1c 513b bf2e 573e a222 413f
000003c0: a71d 8b3e e429 333e 25d2 f93d c96b 62be
000003d0: c031 74be 1454 22be 2555 5ebe d9e9 f9bd
000003e0: c91f c23e 4d90 55bd faed 7cbe 6830 e4be
000003f0: 930b 48be 2cb7 833e 4df6 c9bc 991c 043f
-0.52898175 0.47368833 0.024451729 0.45354378 -0.03790441 0.12987417 0.33742794 -0.07119382
0.21616307 -0.49908328 -0.014349803 -0.12141692 -0.6926766 0.33740568 -0.16244529 -0.23782478
0.06461828 0.16682546 0.6495843 -0.0068412214 0.082007624 -0.08760327 0.29644975 -0.106267944
-0.0005310366 0.1385155 -0.23659703 0.10235144 -0.35969642 0.37021884 0.11781448 0.29684556
0.44239473 0.32264945 0.48396933 0.050179977 -0.27508563 0.13617903 -0.41199023 -0.08661165
0.19344783 0.23093164 -0.60153323 -0.957759 0.22490135 -0.18274437 -0.23195188 0.67435306
0.0548529 0.32104704 -0.26798233 0.4127049 0.2877785 -0.11629398 0.1309436 -0.22169954
0.028394243 -0.04395745 0.15788111 0.6990781 0.31090644 -0.07168859 0.13084233 -0.2800144
-0.21430591 -0.10198664 0.15189067 -0.047674518 -0.83518726 0.1930179 -1.7371261 -0.54710525
-0.22325948 -1.0760674 -0.3347998 0.16878112 -0.39836502 0.28962833 -0.47978586 0.32762945
-0.22264762 -0.24119121 -0.52231413 -0.28730837 -0.5047191 0.19926614 -0.74451756 0.85784346
0.11465271 0.18067923 0.328913 -0.51743835 0.13624004 -0.47549784 -0.027342437 1.0259719
-0.08719735 0.09898146 0.3263373 -0.06264012 0.050822727 -0.10106946 0.040388603 -0.54321444
-0.23411724 -0.17843777 -0.28320414 -0.0025933054 -0.006049473 0.033479948 -0.089756615 0.44487858
-0.2970953 -0.39629605 -0.15027215 0.21868943 0.012314293 -0.06307891 0.15136883 0.22937232
-0.14299797 0.30547976 0.5210699 0.36911663 0.25623924 -0.25696912 0.21596193 -0.3349248
0.10115103 -0.12311434 0.13511361 -0.19011004 -0.14749376 0.12958509 -0.2497286 -0.07161379
0.05983512 -0.3279809 -0.35566312 -0.2627996 -0.11005491 0.3161682 -0.12612665 0.3770904
0.011410477 0.08734121 0.35327384 0.02323823 0.021719698 0.0015539946 0.1840415 0.2992273
-0.080535576 0.24747284 0.13264774 -0.11468534 -0.01615001 0.13834767 0.33457416 0.33721128
0.2900205 -0.79552066 -0.38038602 -0.30394387 0.17069776 -0.1689719 -0.19246763 0.19599843
-0.18956038 0.33836767 0.24462472 -0.10067216 0.4414705 -0.18388934 -0.21239057 -0.02338856
0.23619546 0.3964118 -0.076692805 -0.13257763 -1.1034086 -0.22520772 -0.3406022 -0.8143994
0.16958502 0.053650994 -0.47297147 0.13235761 0.40929717 0.37311196 -1.2310264 -0.11851325
0.29149786 -0.39022 -0.5587415 -0.3087057 -0.34026143 -0.21193793 -0.7929632 0.19601503
0.40737313 -0.24662007 -0.15007664 -0.15750399 0.0062605515 -0.40953353 -0.3274118 0.48650575
0.043333195 -0.20480597 -0.0488192 0.024287729 -0.015880154 0.14627142 0.059109543 0.3325048
0.26466084 0.15165544 -0.347589 -0.13877787 -0.5210625 0.21611387 0.0008819037 0.4281594
-0.17950955 -0.16387284 0.20267202 -0.23902006 0.10771183 0.122179955 -0.33481702 0.8636239
-0.057818547 0.38198575 0.5984918 0.2034022 0.48183367 0.003190792 0.21013926 0.7544347
0.2717106 0.17496449 0.12198285 -0.2211143 -0.23847103 -0.15852386 -0.21712168 -0.12202806
0.37914875 -0.05213957 -0.24700156 -0.4456818 -0.19535665 0.25725687 -0.024653578 0.51606137

state_layer.2.bias f4 [32]
00000000: 70f4 3abc 4009 9ebe a88d 46be 73cf 203d
00000010: d53f d03d e375 a4bd e6b8 393e ae7d 4bbd
00000020: 1a8a 9c3e d3b9 ddbe ab4b f93d db46 ca3e
00000030: b56d 533e 2b70 1fbe db72 9cbe 880e 1bbd
00000040: 31c4 853d 4110 21bd daa7 323e 5a96 7ebe
00000050: e81e 5c3e 7144 16be 6f70 adbe c1ac 013d
00000060: 343a 203d 963f 813e 0542 193d f734 d03c
00000070: a08f 77be 7dbe 2f3e d296 c63e a42e b83e
-0.0114108175 -0.30866432 -0.19389975 0.03926034 0.10168425 -0.080302976 0.1813694 -0.049680404
0.30574113 -0.43305835 0.12172636 0.39507183 0.20647319 -0.15570132 -0.30556378 -0.037855655
0.06531561 -0.03932214 0.17446843 -0.24862042 0.21496165 -0.14674546 -0.33874843 0.03165889
0.039118007 0.25243825 0.037416477 0.02541588 -0.24175882 0.1716251 0.38786942 0.35973084

action_layer.0.weight f4 [32, 1]
00000000: 8dce 1b3b f8e6 5abe 9ec0 823e 1bdd 3dbe
00000010: 02c8 193f 5092 c8bd 9a20 5b3e a556 fa3c
00000020: c88b 59be 2564 39be 9217 103f 4847 04bf
00000030: d241 1dbc b3a6 703e ea8a a13e 3111 d93e
00000040: f7ec 1bbf e3c0 bd3e eb8c 3ebe e4e2 c5be
00000050: 9808 0fbf 20d4 673d 2e56 13bf 02d4 d73b
00000060: 3787 843f 78c9 ad3e 7d46 343f c086 13be
00000070: 9266 7bbd d095 f9bd 62d2 e7be 9d5e 43bf
0.0023774237 -0.2137717 0.2553758 -0.18541376 0.6007081 -0.09793532 0.21399155 0.030558893
-0.21244729 -0.18104608 0.56285965 -0.51671267 -0.009598212 0.2350109 0.31551296 0.42395929
-0.60908455 0.37061223 -0.18608443 -0.38649666 -0.5587249 0.056598783 -0.57553375 0.0065865526
1.0353764 0.3394277 0.70420057 -0.14406872 -0.061377116 -0.121867776 -0.45277697 -0.76316243

action_layer.0.bias f4 [32]
00000000: fc28 563e 5e48 10bf 579f ee3e acb2 f93e
00000010: 31cf 383f 37cc 9a3d 7b4e c43e de9a 6b3f
00000020: 4305 843f 5c10 373f eca8 89be d313 d73e
00000030: 52d3 5f3e 5cb9 f9be 8b4b 573f 4302 62bf
00000040: 108e 8dbf cc55 93bd 55a4 0b3f b224 943e
00000050: 34bd 6dbe fabe 24bf 5311 51bf d8f3 12bf
00000060: cc5e 50bf a064 5c3f ba90 813e 3191 23be
00000070: 71a0 4e3e 3881 a1be f56d b03e f6bc cbbe
0.20914072 -0.56360424 0.46605942 0.48769128 0.7219115 0.07558482 0.38341126 0.92033184
1.0314106 0.7150934 -0.2688669 0.42007312 0.21857956 -0.4877423 0.84099644 -0.882847
-1.1058979 -0.07194099 0.54547626 0.28934246 -0.23216707 -0.6435391 -0.8166706 -0.57403326
-0.8139465 0.8609104 0.2530573 -0.15973355 0.20178391 -0.315439 0.3445889 -0.39792603

out_layer.0.weight f4 [256, 64]
00000000: bc79 95be e6f2 7e3d f87f 00c0 5014 4cbe
00000010: 10df 5fbf 0901 413f 5b40 543e a521 b03c
00000020: c072 18be 5c1b 5f3e 63b9 9dbe ae07 c9be
00000030: 8abe 123f c9c4 103e 3898 cf3e 9985 dfbe
00000040: d938 503d 7a39 123f 2e20 983e 308f 7e3f
00000050: 3134 fbbe 570f 013e f9b8 d23d fd39 1c3c
00000060: 28f0 6abe 4a24 d53d 03a9 f3bd 8bf6 18bd
00000070: f020 263f 4723 723f c7ef 103f 6706 59bf
00000080: adc7 35be 7856 cebd bfc9 e2be 86f3 aebd
00000090: be81 41be 66af 9a3c ddd0 0abf 99ac 61be
000000a0: ad2a 46be 2eee 31bd 11ae a9be 6a42 633d
000000b0: 1b98 81be ec1b c1bd a49f ddbe 4cf3 a9bd
000000c0: 5e05 c2bd da52 d4be 0f2b 3dbe f752 363d
000000d0: c9c6 963e 1497 70bd 0ab8 e03d 88e7 b1bd
000000e0: ede4 0cbf 69bf c9be bc03 cabe 4718 093e
000000f0: fb78 fcbd 70bc b8bc e6cc 0b3e 01dd 97be
00000100: 05c1 08be 25b7 06be 409d 013c 2a40 d0bc
00000110: 6fd1 21be 27c4 a1bd c88c b1bd 0b98 773d
00000120: e044 b4bd 7d0a 86bc a85b c13d 9a4d 5abd
00000130: 005f 453d f659 1bbe 1e0b 95bd 80eb 38be
00000140: e85d 4a3c a747 23be e063 b3bd 1dd1 0dbd
00000150: 2e5f 9abd 55ac 133c 8a06 883d 5037 4f3d
00000160: 43fe 6abe f9a4 4dbc d031 803d 836d 66be
00000170: ef9e b8bd de76 9bbd 498b 5d3d 7620 16be
00000180: b53d 8ebd 40d7 e63d 6731 aebd 76f9 a83c
00000190: 8378 80bc 4c65 8d3c 66a9 1abe b7ca 353d
000001a0: 4eeb 98bd 8f12 20be b06b b3bc 1119 533b
000001b0: 456e 82bd 7626 c5bd 0625 223d 68a7 e6bc
000001c0: 74b2 e13d eb48 733d 2645 19be 83b7 e2bd
000001d0: 56fa 1fbe 00b0 d03d 3e09 c6bd b409 bfbd
000001e0: 6ede a33d c1d5 c5bd 9ef1 92bd 746a 80be
000001f0: cac0 d2bd e003 24bc 2e60 1ebe 286a 6f3d
00000200: b86d 0f3e e3d2 613e de77 9ebe 7005 19be
00000210: bb59 7b3e 800d c3be 3e97 51bc cd6c 323c
00000220: 7a5e 283e 6bc9 1a3e a85c c6be a0c0 c83e
00000230: d3aa eb3e a40c 9a3e d7b3 ff3d db46 983e
00000240: 8209 8fbe 9bdf dc3e d6b5 9d3e 4e0d 733e
00000250: cc92 68bf b506 0f3e c6cc 9ebd 0e86 c6bd
00000260: 617f 503e 4a68 553e 4972 5d3e 48a7 e4be
00000270: 7873 8d3e 355b 333e 8ba1 0e3d a50e b2bd
00000280: aaa1 043e 89b1 c73c 6acc 233e 0d19 ddbc
00000290: 8cf2 913e 5659 1dbe 24da 6d3e d939 7a3d
000002a0: 2eef 8c3d 8b95 003e 66bd 653e 0df2 6e3a
000002b0: 90a2 9a3d a85a 3d3c 2b1d b03d 1684 21bc
000002c0: 83ab 31be bac2 a73e 5827 053e bc73 9cbc
000002d0: 46be d0bd 080a 10bd df0e 94be 54f6 ec3d
000002e0: e4d3 dd3d 1964 733e f5ec 113e 9499 f8bd
000002f0: 38f8 08bc e8f1 23bd 19ac fdbd 8bd2 c8bd
00000300: 549f 643d 01fd e2bb e844 38be e940 9e3e
00000310: e74c 6e3e 565b e8bf b1ba f6bd d97a 90bd
00000320: 7a51 debd 0d2b 36bc 7acb c73d 5d88 0b3f
00000330: 6f71 1dbe 49e0 ddbd 811b c4bd fb50 4c3d
00000340: 898b 0cbf 2947 d13b 7c7c 8e3e ec1a cebd
00000350: 4e93 aebf 8778 833e 9e23 93bd ad9f bdbd
00000360: be5c 1e3e 4f31 fe3b 6eff 2a3e 3d3e 68bf
00000370: d21b 433f 1d43 ff3d c51d f73d 52f1 a13e
00000380: 2f95 0a3d 309f 8ebd 7be5 bb3d 3f8e 3bbd
00000390: 0567 2d3e 7b92 893d 1b46 233e fab0 b63d
000003a0: ab25 d6bb 1742 b2bc c806 a8bd 3b71 d4bd
000003b0: 1054 88bd d7bc 233e 9817 f23c 85e6 083e
000003c0: 2a14 f0be 7840 113e a261 043e 9375 793d
000003d0: 8403 7fbe 5c7c e03d f3ef 7abe 98fb f1bd
000003e0: 2bc5 95bd 9704 163e 3fbb a63d d365 10be
000003f0: a795 3b3d 4ced 4b3d 0a12 ebbc d9b8 1dbe
-0.29194438 0.062243365 -2.0078106 -0.19929624 -0.8744974 0.75392205 0.20727675 0.021500418
-0.14887524 0.2178778 -0.308055 -0.39263672 0.5732199 0.14137568 0.4054582 -0.43656614
0.050835464 0.5711895 0.2971205 0.99437237 -0.49063256 0.12603508 0.10289187 0.00953531
-0.22943175 0.10407312 -0.11897471 -0.037344497 0.6489401 0.9458508 0.5661587 -0.84775394
-0.17751952 -0.10075086 -0.44294545 -0.08542542 -0.18897149 0.018882465 -0.5422495 -0.22038497
-0.19352217 -0.043440036 -0.33140615 0.05548326 -0.2531136 -0.09429154 -0.4328586 -0.08298358
-0.0947368 -0.4146946 -0.18473457 0.044512715 0.29448536 -0.05873783 0.10972603 -0.08686739
-0.55036813 -0.39403847 -0.39455974 0.13388167 -0.12327763 -0.022550792 0.13652381 -0.296608
-0.13354881 -0.13155802 0.0079110265 -0.02542122 -0.15802549 -0.07898741 -0.0866943 0.060447734
-0.08802199 -0.016362423 0.0944131 -0.053296663 0.048186302 -0.15171036 -0.07277511 -0.18058586
0.012351491 -0.15945302 -0.08759284 -0.034623254 -0.07537685 0.009013255 0.06641872 0.05058986
-0.22948556 -0.01255154 0.06259501 -0.22502713 -0.09014689 -0.075910315 0.05408791 -0.1466082
-0.069453634 0.112715244 -0.085055165 0.020626765 -0.015682464 0.017260216 -0.15103683 0.044382777
-0.07466756 -0.1563208 -0.021901935 0.0032210986 -0.063686885 -0.096264765 0.03958609 -0.028155997
0.11020365 0.059395712 -0.14967784 -0.11070158 -0.1562284 0.10189819 -0.096697316 -0.093280226
0.080014095 -0.09659911 -0.07174991 -0.25081217 -0.10290678 -0.0100106895 -0.15466377 0.058450848
0.14006698 0.22053103 -0.30950826 -0.1494348 0.24545948 -0.38096237 -0.012792407 0.010890198
0.1644229 0.15115897 -0.38742566 0.3920946 0.46028766 0.3008777 0.124854736 0.29741558
-0.2793694 0.43139347 0.30802792 0.23735544 -0.90848994 0.13967402 -0.07753901 -0.09693538
0.20361091 0.20840564 0.21625628 -0.44658875 0.27627158 0.17515261 0.034822028 -0.086941995
0.12952295 0.024376648 0.15995947 -0.026989484 0.2850536 -0.1536611 0.23227745 0.061090324
0.068815574 0.12557046 0.22435531 0.0009115048 0.075505376 0.011557259 0.08599313 -0.009858152
-0.17350583 0.32765752 0.1300329 -0.019098155 -0.10192542 -0.035165817 -0.28917596 0.11570421
0.108314306 0.23768653 0.14250548 -0.12138668 -0.008359961 -0.04002562 -0.12386341 -0.09805783
0.05581601 -0.006927133 -0.17995036 0.30908898 0.23271523 -1.8152874 -0.12047327 -0.07054681
-0.10855384 -0.011118663 0.09755607 0.5450495 -0.15375303 -0.108337946 -0.095755585 0.049881916
-0.54900414 0.006386657 0.2782935 -0.10063729 -1.3638704 0.25677893 -0.07184528 -0.09258971
0.15465066 0.007757343 0.16699001 -0.9071997 0.76214325 0.12463973 0.12066225 0.31629425
0.03383368 -0.06963956 0.09174629 -0.045789953 0.1693383 0.06717392 0.15944712 0.08920474
-0.006535252 -0.02176003 -0.082044184 -0.103731595 -0.06656659 0.15990005 0.029552266 0.13369186
-0.46890384 0.14184749 0.12927869 0.060903143 -0.24903685 0.1096122 -0.24505596 -0.11815566
-0.073129974 0.14650188 0.08141183 -0.14101343 0.045797016 0.04978685 -0.028695125 -0.15402545

out_layer.0.bias f4 [256]
00000000: 05b5 70be 10e5 31be daed 4f3e cb34 393e
00000010: 7b12 9a3e 487b 3c3e 6b21 ebbd ddf3 9b3d
00000020: 0dc1 85bd 2e15 1ebd 4151 c03d b76e 23bd
00000030: 53ac 61bd ca43 ff3d c890 c13d 45fa 0cbe
00000040: 0c40 f2bc 8f59 a9bd d118 d23c fc42 293e
00000050: d61c f73d 061b e13d 6dd6 83bc bd4a 743d
00000060: 27ca 553c 021f 53be 0390 f33d d4e4 a2bd
00000070: 7dbe 01be 6522 0bbc 6c62 153e e4d1 8c3b
00000080: bac6 d7bd 096f af3d 5320 2e3e a56b 9d3d
00000090: 1ac2 d1bb f2e2 e73c f3bd 903e 4916 dc3e
000000a0: 6e5e 17be 7043 173d 9fe3 25be b5bb 1f3e
000000b0: b65b a23c 1c4d f1bb faa5 f8bd 8ff8 ca3d
000000c0: 2499 72bd ac0b 19be 8317 66bc 3bd7 e7bd
000000d0: 9481 793e 0795 a0bc 13a9 acbe 86d2 1cbe
000000e0: 059d 8ebd 013a c7bd 44ba 3f3d fe80 1ebe
000000f0: 6555 a03e 5f99 a8bd d6a6 97bd 827e d13d
00000100: be14 16be 548b 0c3d bc9b 7b3e 20f2 953e
00000110: d18f a53d 4b29 e5bd b062 a03d 053c 383d
00000120: 782b efbd 6f97 243e b5c5 08be 8301 413e
00000130: 331a e4bd 8960 c8bd dbd9 9e3d d336 8a3e
00000140: a5e2 443e bf0a a0bd 41eb 123e d751 20be
00000150: c8be 523e 072b a1bd e90c d43d 28f5 26bd
00000160: cfb5 353e 2917 10bd a74c 44be 2f2d 313c
00000170: cc25 0bbd 7d52 17be 3c69 8a3d 038c 7c3d
00000180: 81dd 4f3e aeda 36bd b6ab 1dbe 1ea1 1c3e
00000190: 84c2 8e3c 97b6 23bd 4cc8 1ebe f7d2 bd3d
000001a0: 7dc5 04be c769 22be 2708 ccbd 011f 803e
000001b0: 0a17 673d 1e46 d7bd f7fa b53c ae8e b93d
000001c0: 9def 0abe dd42 613e dd82 c43d b7c3 103e
000001d0: e961 7a3e 0d1c 1c3d 2f36 0a3e c103 2e3e
000001e0: 7e75 223d 6f8d 24be 0305 253e 0a0b e93c
000001f0: b7d4 2bbe e232 a83d 4a8e 883e 53d4 6bbd
00000200: 10bb b8bd 0cb9 febd 5c9b 463e 0a9a 3c3e
00000210: 6688 ac3d 50fd 25bc 262c 953e 7cbd 00bd
00000220: 2b59 973c 8dc1 dc3d 148e 113d 048b 0fbe
00000230: a5c4 0abe d68e 1abe 71ba 42bd daf3 e93c
00000240: 3f89 703e 2d94 963e 84f5 503b 86ee 2b3d
00000250: 1a86 5bbd 01da ad3d 6fde 23be e1b8 42bd
00000260: ecd8 f4bd c923 cfbd 084f 863d cd8c 153d
00000270: d658 d53d b38f 973e 4435 2f3d 41a2 5e3e
00000280: cbc5 66bd a7b6 2e3e 2286 58bd 4f42 b93c
00000290: 6225 63bd 143f 053d 254d 333e e49e 873c
000002a0: 252b 303e f55c ee3d 3396 e0bd e1c6 0d3e
000002b0: 49e7 d63d 1d85 89bd 2eba fabd 24f9 993d
000002c0: c974 2a3e 8cdb 843d af3d 6d3e 1d0b 09bd
000002d0: 2190 bfbd e173 c1bd 04d3 cb3d cd3f e43d
000002e0: aa46 36bd 564a 403e 3600 12be 5823 f7bd
000002f0: bc4a 773d 3260 50bd 8399 413d ff9e 1e3c
00000300: 7ed7 9abd fee2 5b3e fca1 d33d 0bab f83c
00000310: 7262 92bd 5c34 80bd 7d0e 09bd 6e66 533e
00000320: 18bb b5bd da3f 083e 2e9e 993e 3d63 0bbe
00000330: c19f d9bc 6424 00bd 06b8 16be 2e3c a43d
00000340: 1c39 853d e39c c73c e870 32be 0ef6 aa3d
00000350: bb15 68bd 6e58 18be a0cd b1bc 7a07 203e
00000360: c4a4 91bd 7d4c 8b3e 2c58 febd 3a9f 2a3e
00000370: 5862 b0bc 81d7 ccbd 53df 173d 6b29 883d
00000380: ec03 5a3e 6566 ab3d 316a 583e 4f32 22be
00000390: 65d1 8bbc aa13 31bd 6573 0abe 76dc 18be
000003a0: a0dd 3fbe ed65 37be 12dc d8bd 26a0 403d
000003b0: d17b cebd 027a e63c 27ff 133e 4ffe f83d
000003c0: b104 b03d 7d92 833d 7cca c93d 6624 13be
000003d0: ca49 51bd b397 043e 8ece a23d f620 f5bd
000003e0: d1a3 8d3e 0b17 b93c e4ec 9d3d 21c6 d7bd
000003f0: e291 1c3e 8fc4 05bd 6e07 cd3c d9cf d63c
-0.23506553 -0.17372537 0.20305577 0.18086545 0.30092224 0.18406403 -0.11480983 0.076148726
-0.06530962 -0.038594417 0.09390498 -0.039900508 -0.05509598 0.124641016 0.09451443 -0.13767345
-0.029571556 -0.08269035 0.025646599 0.16529459 0.12066047 0.109914824 -0.016093457 0.05964159
0.013048685 -0.20617297 0.118927024 -0.07953802 -0.12670322 -0.008492087 0.14588326 0.004297482
-0.10535951 0.085661 0.17004518 0.07686547 -0.0064013125 0.028306458 0.2826992 0.42985752
-0.14782116 0.036929548 -0.16200112 0.15598948 0.019819122 -0.0073639285 -0.121410325 0.0991069
-0.059228078 -0.14945859 -0.014043692 -0.11320349 0.24365836 -0.019602312 -0.33722743 -0.15314683
-0.06963543 -0.0972786 0.046808496 -0.15478894 0.3131515 -0.08232378 -0.07404868 0.102292076
-0.1465635 0.03431256 0.24571127 0.2928629 0.080840714 -0.11189517 0.07831323 0.044979114
-0.11678213 0.16073392 -0.13356669 0.18848233 -0.111378096 -0.097840376 0.077563964 0.26994953
0.19227083 -0.0781455 0.14347555 -0.1565622 0.2058059 -0.07869535 0.10354025 -0.040761143
0.17745136 -0.035178337 -0.19169866 0.010813995 -0.033971593 -0.1477756 0.06758353 0.061656963
0.20299341 -0.044642143 -0.15397534 0.15295836 0.017426737 -0.039969053 -0.15506095 0.09268754
-0.12965961 -0.15860663 -0.099624924 0.25023654 0.056418456 -0.10511421 0.022214396 0.09060417
-0.13567968 0.21998163 0.09595273 0.1413716 0.24451412 0.03811269 0.13497232 0.1699362
0.03966283 -0.16069578 0.16115193 0.028447647 -0.16780363 0.0821283 0.26671058 -0.057575535
-0.09020054 -0.12437639 0.19395202 0.18418136 0.084244534 -0.010131195 0.29135245 -0.031430706
0.018475136 0.107791044 0.035535887 -0.14017874 -0.13551576 -0.1509355 -0.047541086 0.02855866
0.23489855 0.29409924 0.003188462 0.04197552 -0.053594686 0.084888466 -0.1600282 -0.047539596
-0.11955437 -0.10114247 0.06558043 0.03651123 0.10417335 0.2960182 0.042775407 0.21741582
-0.056340974 0.17061864 -0.052862294 0.022614626 -0.055455573 0.03253086 0.17509897 0.016555257
0.17203958 0.11638824 -0.10966148 0.13845398 0.10493333 -0.067148425 -0.12242542 0.07518223
0.16646113 0.06487188 0.23168062 -0.033457864 -0.09353662 -0.0944593 0.099523574 0.111449815
-0.044500984 0.18778357 -0.14257893 -0.12067288 0.060374007 -0.05087299 0.04726554 0.009681462
-0.07560633 0.2147331 0.103336304 0.030354997 -0.07147683 -0.06259987 -0.033461083 0.20644543
-0.08873576 0.13305607 0.30003494 -0.13612075 -0.026565434 -0.031284705 -0.14718637 0.08019291
0.065050334 0.024366802 -0.17425883 0.083477125 -0.05666135 -0.14877483 -0.021704495 0.15627852
-0.07111505 0.27206793 -0.12419161 0.16662303 -0.021531269 -0.100020416 0.037078213 0.06648525
0.21290559 0.083691396 0.21134259 -0.15839504 -0.01706762 -0.043231644 -0.13520582 -0.14927849
-0.18736887 -0.17909975 -0.1058885 0.04702773 -0.1008221 0.02813435 0.14452802 0.121578805
0.08594645 0.06424425 0.09853074 -0.14369354 -0.05109576 0.12948494 0.079495534 -0.119691774
0.27664044 0.022593996 0.07711199 -0.10535837 0.15290025 -0.032658156 0.025027957 0.026222156

out_layer.2.weight f4 [256, 256]
00000000: c925 11be 689b c63c f278 713e c087 9a3d
00000010: 0dd6 c73d 006f 253e 2eda 2bbb 17d9 303e
00000020: 750a 89bc ee25 163d 479a 473d cc7e 8fbc
00000030: 7edc 15bd a052 0f3e 97e4 acbd 36b7 99bd
00000040: 355b a2bd 4972 c4bc c058 453c cca3 d83d
00000050: 4e74 013e 1797 69bc 36ef 983d 541b 973b
00000060: 9a5c f23c 1051 d23d 06b8 2f3e 3143 b0bc
00000070: 8288 55bd 249b fabc 6ccf bfbd 0396 0e3e
00000080: b24d 51bc a534 633e e1be 323e 7f3d a33c
00000090: 002a b9bd 5643 183d eabe e53e 3d33 733e
000000a0: 17a6 2cbc e0d9 403e f19c c9bd 4376 5d3d
000000b0: fd81 093d be41 9bba 1e20 1e3d 4de9 123e
000000c0: 2e41 9f3d 71ef a8bd 8c4d 8f3d b7a5 b7bb
000000d0: 7b28 863e 2ea1 283c 9d80 293f 4113 42bd
000000e0: 4b48 e43d 9643 19bd 7208 2d3e 5e9d 1f3d
000000f0: 7965 073e 047f 7abb 38cf 493d ebd1 193d
00000100: 309f 39bc 93aa f33b 1271 703e fa37 873e
00000110: 60f0 cbbd 9729 2e3d da31 0ebd 8774 d53c
00000120: a4a4 e7be 1d37 d83d d84a cfbc 60da db3c
00000130: 3e54 9a3d b456 75bd c928 a03d 5238 8b3e
00000140: 51db c63d ba2f d3bb 00f9 d83e b7b5 acbd
00000150: 462d 8a3e 1758 b93e fcbd 543d 8fd0 8f3d
00000160: 95e7 703e da02 143d 2f69 e0bc 5362 033d
00000170: cc29 b33e cedd 6b3c 0745 253d 5369 683d
00000180: 948c 9e3d 61fc ca3d 710e 4e3d 1739 b33d
00000190: a937 47bd e6f4 9cbd 0e76 03bc a1d3 c9bb
000001a0: 17a6 ac3d ab81 f53c 8c09 92be b4d5 403e
000001b0: 74cd 8e3c ca33 2d3d 7798 e9ba 2d43 5a3b
000001c0: b70c 2bbd 374f 6a3e 733a 1d3d fd46 083e
000001d0: 6bde 8a3e 55ff e5bc e189 a03d c836 bb3d
000001e0: 7462 0bbd 5ca5 74bc 5e3a 3ebd af2a 29bb
000001f0: e656 aebc 8e53 ebbc e1cd 323e a6c1 97bd
00000200: cf8f 21bd 4b88 eabb cdfa 513e fae7 a43c
00000210: 67e9 a03d a43f 0e3d 6fb1 613d 0c94 c43c
00000220: 62e2 c73e 5bb7 413d e0cc f4bb 3759 703d
00000230: 0217 513d 3e42 9d3d d7cf 24bc abcf 68bc
00000240: a6ba 0b3e fcf1 a93d 5fcc 8d3d 5ca1 66be
00000250: 066e 9a3d 43ec 193f 5963 cdbd 0c20 cb3c
00000260: b498 833e 1d33 06bc 7e55 993d 4fca aabd
00000270: dcc3 f33d 7e90 c73e 7076 aabc f7ba 003e
00000280: 3ce4 823d ea2b be3d 3d7f 17bd 62f7 813c
00000290: f3f0 233d c94d ac3d c6a5 2bbf ff2c 4c3f
000002a0: fdb7 b53d d2f8 33be 773d 263c 6bc9 e13d
000002b0: af93 a43d 5c23 f93d 110f d53d 7982 043e
000002c0: 2bdc 953e 5129 f8bc 05c0 103e 05d2 763b
000002d0: bf47 953d afff abbd 8da0 cd3e ed9f af3d
000002e0: c600 3f3d 849f e23d 66e8 1cbd 97f2 943c
000002f0: 3f86 41bd 12c9 573c 2d88 3fbc 2649 193e
00000300: 5664 1fbd ba00 bd3d 26a9 09be dc5b 7abc
00000310: 07d6 243e 69c1 8bbd b44e fd3d 1307 833d
00000320: cfc2 3e3d 3c05 9d39 876c 7a3e cfea af3d
00000330: b328 543d 7141 323e c1bb 41ba 0b2d 743c
00000340: cb62 ea3b 5e89 efba 715f 4d3c dfd1 29bc
00000350: 143c fb3c e788 aebb 73f5 663d 3c7a 413e
00000360: 65a0 003f b622 1d3e aad8 da3b b5f7 4b3d
00000370: 3aa2 5b3d e175 493d 9989 6bbb a513 1b3d
00000380: 480d de3d 68e3 443e 8746 d3be 0ef2 9a3d
00000390: 5611 98bd 2e71 a73d d82b 37bd 9214 5abd
000003a0: eaa1 e03c bd46 893d 1283 52bc cbc2 863d
000003b0: 8226 5d3b 2959 d0bb ed01 eb3c 8724 8e3e
000003c0: 911f 853d 5a10 1a3d eac6 603d 06e6 9f3d
000003d0: d161 cabc ecfe 7d3e 2738 303c 768a 06be
000003e0: 5569 6c3e 5d7d a23d ca6d c33d fb3f 753c
000003f0: d4b5 fd3d b00b 833c 0615 a43c 33af 7939
-0.1417457 0.024244025 0.23581293 0.075454235 0.09757624 0.16155624 -0.0026222575 0.17270313
-0.01672862 0.036657266 0.048731115 -0.017516516 -0.03658723 0.13996363 -0.084420376 -0.07505648
-0.079275526 -0.023980277 0.012045085 0.10578117 0.12642023 -0.014257214 0.07467501 0.004611412
0.029585171 0.10269368 0.17160043 -0.021516414 -0.052132137 -0.030591555 -0.093657345 0.13924412
-0.012774872 0.22188051 0.17455627 0.019926785 -0.09041214 0.03717359 0.44872218 0.23750015
-0.010537646 0.18833113 -0.09844387 0.05406786 0.033571232 -0.0011845154 0.038604848 0.1434681
0.07776104 -0.08248795 0.06997213 -0.0056044715 0.2620276 0.0102923345 0.66211873 -0.047381643
0.11146601 -0.03741797 0.16897753 0.038968436 0.13222302 -0.003822268 0.049269885 0.03755371
-0.011329457 0.0074361055 0.23480633 0.26409894 -0.09957957 0.042520132 -0.03471551 0.026056541
-0.45242798 0.10557387 -0.025304243 0.026837528 0.07535599 -0.05989714 0.07820279 0.27191406
0.097098 -0.0064448984 0.42377472 -0.08433097 0.26987666 0.3620002 0.051938996 0.07022201
0.23525842 0.036135532 -0.027393905 0.03207619 0.34992826 0.014396144 0.040349033 0.05674107
0.07741657 0.09911419 0.05030674 0.087511234 -0.048637066 -0.07663898 -0.008023752 -0.0061592613
0.084301166 0.029969057 -0.2852291 0.18831521 0.017431952 0.042285718 -0.0017821927 0.00333042
-0.041760173 0.2288178 0.03838582 0.1330833 0.27122816 -0.028075853 0.07838798 0.09141308
-0.03402944 -0.014932003 -0.046442382 -0.0025812795 -0.02128167 -0.028726365 0.17461349 -0.074099824
-0.039443787 -0.0071573607 0.20505829 0.020130146 0.07857018 0.03472866 0.055100854 0.023996376
0.39039904 0.047294002 -0.007470712 0.058678832 0.051047333 0.0767865 -0.0100593185 -0.014209668
0.1364542 0.08298108 0.06923746 -0.22522491 0.075405166 0.6012613 -0.10028715 0.024795555
0.2570244 -0.008190897 0.074870095 -0.083393686 0.119025916 0.38977426 -0.020808429 0.12571321
0.063911885 0.0928572 -0.03698658 0.015865032 0.04002471 0.08413274 -0.67049825 0.7975616
0.088729836 -0.17575386 0.01014649 0.110247456 0.08035981 0.121649474 0.10403264 0.12940396
0.29269537 -0.030293139 0.1413575 0.0037661802 0.07289075 -0.08398377 0.40161553 0.08575425
0.046631597 0.110655814 -0.03830757 0.018182082 -0.047247168 0.0131704975 -0.011690182 0.1496931
-0.038914047 0.09228654 -0.13443431 -0.01528069 0.1609727 -0.068239994 0.12368527 0.06397834
0.046572503 0.00029949273 0.24455462 0.08589708 0.051796626 0.17407776 -0.0007390343 0.014903317
0.0071528903 -0.0018275192 0.012534962 -0.010364979 0.030668296 -0.0053263786 0.056386422 0.18894285
0.5024474 0.15345272 0.0066786604 0.04979678 0.05362151 0.049184684 -0.003594017 0.03786053
0.10842377 0.19227374 -0.41264746 0.075656995 -0.074251816 0.08175884 -0.044719547 -0.053242274
0.027420957 0.067029454 -0.012848632 0.065801226 0.0033744876 -0.006358285 0.028687442 0.27762243
0.065001614 0.03761325 0.0548772 0.07807545 -0.024704846 0.24804276 0.010755575 -0.13138756
0.23087056 0.079340674 0.09542425 0.014968867 0.123881966 0.015996784 0.020029556 0.00023811757

out_layer.2.bias f4 [256]
00000000: 2f55 783e c5ba 623e 7e10 1ebd 505d 853e
00000010: 7ace 5dbd 0f8a 253e ebc2 753e 2288 003b
00000020: f57d 793e 53e5 64bd 101a 3ebd 2d6a 143d
00000030: 33b1 68bd 1f80 a7bd d0cd 7b3e be04 a43e
00000040: 3e58 1f3e afc0 a9bd 4943 0b3e b4ea 063d
00000050: 5e0a 92bb f7f3 2bbd 6d09 88bd c943 7c3e
00000060: 756c 81bd 05aa 303e 20fe 943e af24 aabd
00000070: c9e8 c3bd 4d94 1a3c c69e 95bd ae8b 9dbb
00000080: 01dc 45bc 8e27 10bd df1d 2ebc fc53 f3bc
00000090: f2e4 42bd 867a 1abd 6ceb f3bd 2094 7f3d
000000a0: d0d1 523e 0473 fcbc f213 503e d647 11be
000000b0: cdcd 86bc 5a74 dfbd f83f b0bc c1c4 573e
000000c0: 51f2 4dbd dcd6 72bc 8cca 2e3e 726c 683e
000000d0: b0c8 b0bc af9e 2d3e 0ca6 7e3e a0e1 b6bd
000000e0: 0b5c e8bc 0511 84bd 2d44 563e 7553 6abd
000000f0: 240d 163e 1b5c 273e bee0 de3d d298 613e
00000100: 49fd 5d3e de38 80bc 1585 8cbd 42d0 613c
00000110: eea1 2b3c 7edd 19bd 59e8 07bb 2fb2 3a3d
00000120: f6ee 17bb 1048 c73c a645 1bbc 25cb 8bbd
00000130: 3752 aebc b7d8 22bd 2269 7a3e fe27 98bd
00000140: 3e46 14bd a5e0 343e 27ed 2fbd bca7 0a3d
00000150: ca3e 703e bbdd 3f3f 3211 59bd 6aa0 5abc
00000160: 8c50 053d 1056 8c3e cd3d 9e3c e5ca 0abb
00000170: d531 04bd 559f 13bd 8e10 98bd 0f78 843e
00000180: 7444 77bd febc 723e 9f7b 3f3b dca7 593e
00000190: 43e1 583e 79e4 4d3e e75a a5bc 47fb a9bc
000001a0: 46d0 13bd 9d57 82bc 6a4f 5bbd 7687 223d
000001b0: 2af3 51bd 4ddc 0ebd b029 3ebd f5fb 80bd
000001c0: 52bd 1c3e 0ed9 9abd 3e67 1bbd f867 babd
000001d0: ad2d 5f3e a6de 98bd 21df 6f3e 5fa3 2a3e
000001e0: 9f90 c33b 2383 e5bd 1eff 96bc 4615 95bd
000001f0: 0682 9fbd 12b7 843e a343 e1bd 1c3e 4f3e
00000200: 38d6 31bd 56b9 2f3e 40ab ca3c bbf4 f93c
00000210: 8627 93bd 33c5 6dbb a279 7a3e f25c 4e3e
00000220: 47b7 acbc 8421 7bbc f673 1fbc 4066 30bd
00000230: 4f36 153e 5c26 053d dce1 053d 7deb 9f3c
00000240: b484 feba 5ebf 91bd 7401 7ebc 2625 96bd
00000250: c536 05bd c798 afbd 7cea 823c aa2e 55bd
00000260: e277 51bd 3f9c f53d 167d 3a3e 1b36 80bc
00000270: f5a6 4f3e aa44 623c 6b2b 61bd d157 683e
00000280: 7aa1 58bd 3447 803e 744d 023d 95fd 133d
00000290: cdd1 053e 97a2 573e 81e5 723e e98d 693e
000002a0: 1f94 1e3e bb6e 6ebd 50c1 b8bd eeff 2c3d
000002b0: 4cde 7dbc 2f55 a4bd 25e0 143d e1c7 4cbb
000002c0: 451d 933e 144f fcbc 3e0d 91bc 66bc 343e
000002d0: e3e7 68bd b0db b1bd 713f 4abd 2b1b 8e3e
000002e0: 871e ccbd 367d 92bd 5985 363e 3dcb 82bd
000002f0: 34dc 813e b128 533c 224c 513e 21f2 46bc
00000300: d3eb e5bc 7b89 713e c588 88bd 1062 32bd
00000310: 42dd 1e3e 3bd4 92bc 0a41 6a3e b2c5 d6bd
00000320: f6c1 2b3d cbd3 823e 6f8c b93c 2960 d33c
00000330: 265b 3a3e d761 6f3e 1a13 d1bd 6e8b 513e
00000340: 978b 52bc f755 a4bd 902b b9bc 43b2 653e
00000350: f0bd 3f3e d8af babd 8ace d7bd 11ca 923e
00000360: 56cb 12bd fa9a d7bc e1cd cbbd 83cb e7bd
00000370: b2af 6e3e cdd8 00bd c212 883e efc2 323d
00000380: 991e 4dbd 592c 433e ccaa 2d3e 49f2 613e
00000390: 2020 b7bd 973c afbd d6bb 9fbc bb7f d1bb
000003a0: 4be7 883e ac63 6f3e 72ea ec3b fb39 63bd
000003b0: 64ba 343e 0b2c 953e 2d7b 713e 980c b7bd
000003c0: cd7b 433e 45bc 8a3e 406e 37bd f29a 063e
000003d0: cf3a abbd cb21 e0bd 0346 733e 8095 4f3a
000003e0: d4fa 603e 6b8b 6a3e 0f9d 24bd 034d 833e
000003f0: 9b0b 6dbc e3d9 e2bd e64c 833e 5ac8 d1bd
0.24251245 0.2214156 -0.038589947 0.26047754 -0.05415199 0.16165946 0.24000137 0.0019612391
0.24364455 -0.055882763 -0.046411574 0.03623407 -0.056809615 -0.08178734 0.2459023 0.32034868
0.15561005 -0.082887046 0.13599886 0.032938674 -0.0044568023 -0.04198071 -0.06642423 0.24635233
-0.06319515 0.17252357 0.29100132 -0.08307778 -0.095658846 0.009434772 -0.07305674 -0.004807911
-0.012076379 -0.035193972 -0.010627239 -0.029703133 -0.04758162 -0.037714504 -0.119101375 0.062397122
0.2058785 -0.030816562 0.20320109 -0.1418756 -0.016455555 -0.10910864 -0.021514878 0.2107115
-0.05027992 -0.014821734 0.17069453 0.22697619 -0.02158007 0.16955064 0.2486803 -0.08929753
-0.028364202 -0.06448559 0.20924444 -0.057208497 0.1465345 0.16343729 0.1088271 0.22030953
0.21678652 -0.015652116 -0.06861321 0.013782563 0.010475619 -0.037564747 -0.0020737855 0.045580085
-0.0023183203 0.024326354 -0.009477055 -0.06825856 -0.021279437 -0.039757457 0.24454167 -0.07429503
-0.0361998 0.1766382 -0.042950775 0.03385137 0.23461452 0.7494771 -0.052994914 -0.01334391
0.03254752 0.2740941 0.019316578 -0.0021178063 -0.032274086 -0.036040623 -0.074250326 0.25872847
-0.060368016 0.23704907 0.002921797 0.2125544 0.2117968 0.20106687 -0.020184947 -0.020749701
-0.036087297 -0.015910918 -0.053542532 0.039679967 -0.05125729 -0.034878064 -0.046426475 -0.06298057
0.15306595 -0.07560931 -0.037940256 -0.09101862 0.21794768 -0.07464342 0.2342496 0.16663884
0.005968168 -0.11206653 -0.018432196 -0.07279448 -0.07788472 0.25920922 -0.10999229 0.20238537
-0.043417186 0.17160544 0.024739861 0.030512204 -0.07185273 -0.003628087 0.24460462 0.20152643
-0.021083487 -0.015327815 -0.009732237 -0.043066263 0.14571498 0.032507285 0.0326861 0.01952147
-0.0019418211 -0.071165785 -0.015503276 -0.07331304 -0.032522935 -0.08574062 0.015980951 -0.052046455
-0.05113972 0.11992692 0.18211779 -0.0156508 0.20278533 0.013810316 -0.054973047 0.2268975
-0.05288837 0.25054324 0.031812146 0.036130507 0.13068314 0.21058117 0.23720361 0.2280804
0.15486191 -0.05821107 -0.090212464 0.04223626 -0.015494894 -0.0802406 0.036346573 -0.0031247067
0.28733268 -0.030799426 -0.01770651 0.17649993 -0.05686177 -0.0868448 -0.04937691 0.27755103
-0.0996676 -0.07152788 0.17824306 -0.06386421 0.25363314 0.01288812 0.20439199 -0.012142689
-0.028066551 0.23587601 -0.06666712 -0.04355055 0.1551409 -0.017923465 0.22876373 -0.10486926
0.041933022 0.2555221 0.022649972 0.025802689 0.18198833 0.23377167 -0.102087215 0.20463344
-0.012850664 -0.08024209 -0.02260378 0.22431283 0.18724799 -0.09115571 -0.10537441 0.2866979
-0.035838448 -0.026319016 -0.09951378 -0.11318114 0.2330921 -0.031456757 0.2657681 0.043642934
-0.05007801 0.19059886 0.16959685 0.2206508 -0.08941674 -0.085564785 -0.019498747 -0.0063934005
0.26738963 0.23377866 0.0072300965 -0.055475216 0.17649227 0.29135165 0.23582144 -0.08937949
0.19090195 0.27096763 -0.044782877 0.13145044 -0.08360826 -0.109439455 0.23757176 0.00079187006
0.21970683 0.22904746 -0.040188845 0.25644693 -0.014468099 -0.11076715 0.25644606 -0.10243292

out_layer.4.weight f4 [1, 256]
00000000: b70e efbd ec57 08be c7b5 3f3d 6a3e e3bd
00000010: e7d1 26bd 5047 e7bd 36b2 03be 35ff 0d3b
00000020: e4c6 14be 3816 b8bb 8380 e7bc 2e57 2c3d
00000030: e5d1 0d3c fff8 23bd 880d 10be 811d 71be
00000040: 8e04 3dbe 5d25 81bd 40b0 3dbe 715f cdbb
00000050: 6d9e 04b8 43ca fb3c 54a2 043d 4a0f 20be
00000060: d037 b83c a03f dcbd 19f7 0bbe 06a7 1dbd
00000070: d38c 60bd c82c c13b 2d2f 89bd 7d7a 9db9
00000080: bad3 d93b 5d93 103d e741 3e3d 10c8 433d
00000090: 6479 973c c33d efbc 1363 68bd 545e cd3c
000000a0: 42de 01be edb6 1b3d b80c f2bd 8a4b 58bd
000000b0: 61e8 d13c f24d 52bd 6f68 bf3a 22a4 ffbd
000000c0: bb23 ee3c 5505 9a3c 3a61 01be 593d 36be
000000d0: d241 803c c71e 18be ef87 1abe a70b 2dbc
000000e0: 64c5 74bd 1fe3 233c 0eab 2dbe c8eb b53c
000000f0: 9545 57be 96cc 5ebe 3826 5cbe 3d5d 08be
00000100: 5fd6 20be ace2 3bbd 0695 203d 30c9 b23c
00000110: 81aa c7ba 9797 3d3d ade4 833d 6702 ba3c
00000120: 3c26 f83b 930e 743c 25a1 123d e403 8ebb
00000130: c87c a3bc 4472 793d a7b3 1cbe 1c7c febc
00000140: fee2 2f3d 8247 eabd 650e 1f3d b81a 31bc
00000150: 531f 04be a154 0d40 325d ddbc 0cb0 0c3d
00000160: dbc3 f13c 0a17 c3bd ed51 973c 457a 193c
00000170: 2e88 a83c 5141 473d b575 0d3b 16c7 08be
00000180: 44f4 74bc ef58 23be dc31 43bd 6515 1abe
00000190: 3a85 02be 8b20 28be e3cd 7d3c 6a43 ddbc
000001a0: c52a 073c 9a20 d5bb 8cf6 7abd 281f c93c
000001b0: 1c3b 003d 9b6e 7a3c 3fa8 a5bb 3e55 1ebd
000001c0: 12a4 f4bd 18ec 31bd b3f4 e3bc 0a22 e1bc
000001d0: 7bfc 02be d730 f8bf 9621 883e 00aa 43be
000001e0: 63eb 123e 36a9 13bd e76a b33c 44a6 013d
000001f0: a496 813c f353 43be 770d 2e3c c3bd 2fbe
00000200: 8dac 173d 2bc3 f1bd 95fe 173d 8f87 b2bc
00000210: 0d3c 173b 9965 d63a d342 14be 90c0 38be
00000220: 08f3 3abc aebb 15bd 795b 533c 7daf 103d
00000230: 3af3 3bbe 161a a23c 073f 3f3c 0cc6 003c
00000240: 980d 3b3d d039 40bc 3f0a 373d 94c9 f23b
00000250: fd0e 18bd 984a 35bd 4ff1 b0bb ebe0 e2bc
00000260: 46cf a83c fceb 34be aad6 39be 5ee2 203d
00000270: 8941 41be af02 383d 3fa3 2aba 70da 30be
00000280: caa7 d2bc 2e18 dcbd aaf0 6f3c 0380 fe3c
00000290: cee2 4abe 7e2a 07be 6ad2 0bbe 4312 c6bd
000002a0: 056d 1cbe e826 b6bb 1ac8 503c de6e 14bc
000002b0: 5e17 94bb 2ea3 17bd 57ff 333c 5867 c43c
000002c0: 513f 0abe de67 2abb c60c a53c a89e 36be
000002d0: b67c 903c 7ad2 d4bc 84b9 03bd 81fa 14be
000002e0: 1303 59bc 40be cb3c 45d8 2cbe 9f16 aabb
000002f0: dc6f 28be 68c8 4b3d 61ff 23be 354d 9a3a
00000300: ef41 3b3c 2e2c 04be 4697 293b 5bc2 6bbb
00000310: bbc6 2bbe a17e 8cbc 8c83 b2bd 2b86 6e3d
00000320: 15c5 923b 9a84 0fbe 7c3c 86bb d27d 6fbc
00000330: 131f 15be 20e4 0cbe f8b9 3d3d 0b2c 4ebe
00000340: 641f 7f3b 7e0d 123d 5e2f 293d a485 13be
00000350: 5ecb 18be 7002 7ebd 9136 4cbd e680 24be
00000360: f86d 39bd 0e83 a03c 8b8f 6ebc 3c59 7cbc
00000370: c502 04be aab2 58bb 6935 12be 1f7f 3c3d
00000380: 5f97 a0ba 3aea 20be ba73 cdbd 968e 26be
00000390: e565 9fbc 7711 a5bd 4fc5 2f3d e32a 403b
000003a0: a2e3 dcbd 39f2 0ebe 4c13 0a3d 8165 c6bc
000003b0: cf4e 20be 66a9 0bbe f219 0dbe 520b 6fba
000003c0: 56dc f1bd 6a85 1abe 1de8 1e3d c84e 37be
000003d0: 6fc6 27bc 6037 30bc 85b4 21be 743b 87bc
000003e0: 9738 babd 24af 13be d28c 803b 9d38 07be
000003f0: facb 47bc ab07 68bc 89af 1fbe 2e53 9cbd
-0.116727285 -0.1331479 0.046804216 -0.11095889 -0.040727522 -0.11292899 -0.12860951 0.0021667008
-0.14528996 -0.005617883 -0.028259521 0.04207533 0.008656 -0.040032383 -0.14067662 -0.23546411
-0.18458769 -0.063059546 -0.18524265 -0.006267481 -3.1618798e-05 0.030736094 0.03238137 -0.15630832
0.022487551 -0.10754323 -0.13668479 -0.038489364 -0.0548218 0.005895231 -0.06698451 -0.00030036634
0.006647554 0.035296787 0.046449568 0.047798216 0.0184905 -0.029204255 -0.05673511 0.025069393
-0.12682441 0.03801625 -0.11818832 -0.052806415 0.025623502 -0.051343866 0.0014603267 -0.12482478
0.029069772 0.01880137 -0.12634745 -0.1779684 0.015656386 -0.1485549 -0.15090917 -0.01056186
-0.05975856 0.01000288 -0.16959783 0.022207156 -0.21022637 -0.21757731 -0.21498954 -0.13316818
-0.15706776 -0.045870468 0.03920462 0.02182445 -0.0015233309 0.046287145 0.06440101 0.022706224
0.0075729173 0.014896053 0.03579821 -0.00433396 -0.019956961 0.060899988 -0.15302907 -0.03106504
0.042941086 -0.1143942 0.038832087 -0.010809593 -0.12902574 2.2082903 -0.027021978 0.03434758
0.029512336 -0.09525879 0.018471682 0.00936753 0.020572748 0.048646275 0.0021585051 -0.13357195
-0.014950816 -0.15951894 -0.04765497 -0.15047224 -0.12746134 -0.16418664 0.015490982 -0.027009685
0.008249943 -0.0065041305 -0.06127028 0.02455099 0.03130637 0.015285159 -0.005055457 -0.038655512
-0.119453564 -0.043438047 -0.027826643 -0.027482051 -0.12791626 -1.9389905 0.26588124 -0.19107819
0.14347605 -0.036050044 0.021901561 0.031652704 0.015818901 -0.19074993 0.010623327 -0.17162232
0.03702979 -0.118048035 0.037108023 -0.021793155 0.0023076565 0.0016357183 -0.14478616 -0.18042207
-0.011410482 -0.03655594 0.012900227 0.03532361 -0.18354502 0.01978783 0.011672742 0.007859718
0.04566726 -0.011732534 0.044687506 0.007409284 -0.03712367 -0.04426059 -0.00539986 -0.02769514
0.020606648 -0.17668146 -0.18148294 0.03927838 -0.18872656 0.044924434 -0.0006509311 -0.17270827
-0.025714774 -0.107467994 0.014644781 0.0310669 -0.19813082 -0.13199803 -0.13654485 -0.09671452
-0.15275963 -0.005558837 0.01274302 -0.009059636 -0.004519387 -0.037020855 0.010986171 0.02397506
-0.13500716 -0.002600185 0.020147692 -0.1783396 0.017637592 -0.02597927 -0.032159343 -0.14548685
-0.013245362 0.024870992 -0.16879375 -0.005190685 -0.16448921 0.04975167 -0.16015388 0.0011772277
0.011429294 -0.12907478 0.002587752 -0.0035974 -0.16775028 -0.017150225 -0.08716497 0.05823342
0.0044790604 -0.14015427 -0.004096566 -0.0146174 -0.14562635 -0.13758898 0.04631993 -0.20133989
0.0038928622 0.0356574 0.04130494 -0.14406449 -0.14921328 -0.062014043 -0.049856726 -0.16064796
-0.04527089 0.019593742 -0.0145605905 -0.0154021345 -0.12891681 -0.0033065476 -0.14278187 0.04601967
-0.0012252143 -0.1571435 -0.10031839 -0.1626533 -0.019457767 -0.08059972 0.042912778 0.0029322437
-0.10785605 -0.13959588 0.03370981 -0.024218323 -0.15655063 -0.13638839 -0.13779429 -0.00091188133
-0.11809604 -0.15089956 0.03879558 -0.17901146 -0.010240181 -0.01075539 -0.15791519 -0.016507842
-0.09092825 -0.1442228 0.003923037 -0.1320519 -0.012194628 -0.014161984 -0.15594305 -0.07633053
