Reinforcement_Learning/KHW/pendulum_critic.pt (torch, 337898 bytes, 11 tensors)

state_layer.0.weight f4 [16, 3]
0	0xbfa99ef4	-1.3251634
1	0xbef9be3f	-0.4877796
2	0x3da463d7	0.080268554
3	0x3ad073d9	0.0015903666
4	0xbf589469	-0.84601456
5	0xbe1df205	-0.15424354
6	0xbead8167	-0.3388779
7	0x3f9ec71c	1.2404513
8	0x3e740147	0.23828612
9	0xbdd8dfaf	-0.10589539
10	0xbf9d4774	-1.2287431
11	0xbea56c2f	-0.323091
12	0x3eeb864c	0.46000898
13	0x3f85a2d2	1.0440314
14	0x3e48c297	0.1960548
15	0x3e2623c5	0.16224582
16	0xbe09d2ca	-0.13459316
17	0x3d08aed5	0.033369858
18	0xbe2b3f1e	-0.16723296
19	0x3fe1e9e1	1.7649499
20	0x3ed31b29	0.4123166
21	0x3df65486	0.1202784
22	0xbf432642	-0.7623025
23	0x3e9e3cf1	0.3090587
24	0x3e3dfa07	0.18552409
25	0xc00262a1	-2.0372698
26	0xbe9c36a7	-0.30510446
27	0xbe74f13b	-0.23920147
28	0x3ef3db0e	0.47628063
29	0x3e9b1e1e	0.30296415
30	0x3e4d2ab6	0.20035824
31	0x3e640dd0	0.22270894
32	0xbe5079de	-0.20358989
33	0x3fa0199d	1.2507817
34	0x3f77e99b	0.9684083
35	0x3e7df02d	0.24798651
36	0xbec15401	-0.37759402
37	0x3e1d31f6	0.1535109
38	0x3e95ce2b	0.29258856
39	0xbf573614	-0.8406689
40	0x3f74820d	0.9551094
41	0x3e8a6442	0.27029616
42	0xbe207b49	-0.1567203
43	0x3ed1d5e4	0.40983498
44	0xbdb772a7	-0.08957415
45	0x3fdf5200	1.74469
46	0xbf964bbc	-1.1741862
47	0xbeea772d	-0.4579405

state_layer.0.bias f4 [16]
0	0xbe0221ef	-0.12708257
1	0xbd3bec3d	-0.04587959
2	0x3da97832	0.082748786
3	0x3b42ffee	0.0029754597
4	0x3ed6bcad	0.41940823
5	0xbf035700	-0.51304626
6	0xbe8092e0	-0.25112057
7	0x3da288df	0.07936262
8	0x3e333556	0.17500815
9	0xbf0b07b7	-0.54308647
10	0x3f25cd8b	0.6476676
11	0x3ea557ff	0.32293698
12	0xbf1d0c1a	-0.6134659
13	0x3f0b2cf3	0.5436546
14	0xbe7ea900	-0.24869156
15	0xbe8c49c5	-0.27400032

state_layer.2.weight f4 [32, 16]
0	0xbf050216	-0.5195631
1	0x3ef2e30d	0.4743885
2	0x3d0992fc	0.03358744
3	0x3ee93e22	0.45555216
4	0xbd12ab83	-0.035808098
5	0x3e04fcf3	0.12987117
6	0x3eb0622a	0.34449893
7	0xbd99c79b	-0.07508775
8	0x3e5c9884	0.21542555
9	0xbefb0806	-0.4902956
10	0xbc436d8e	-0.011927975
11	0xbe005ef7	-0.12536226
12	0xbf2d856e	-0.6778172
13	0x3eb14122	0.34620005
14	0xbe226e4f	-0.15862392
15	0xbe7d223a	-0.24720088
16	0x3d7dff74	0.062011197
17	0x3e27e4b2	0.16395834
18	0x3f237795	0.6385434
19	0xbc20acf7	-0.009806863
20	0x3d9d177f	0.07670497
21	0xbdb36a02	-0.08760454
22	0x3e940294	0.28908217
23	0xbde16a2d	-0.110065795
24	0x3a6208eb	0.00086225447
25	0x3e0702d0	0.13184667
26	0xbe7b1a50	-0.24521756
27	0x3dcd46d7	0.10023277
28	0xbebbb3bb	-0.3666056
29	0x3ebb17a8	0.36541486
30	0x3dda05c4	0.10645631
31	0x3e966363	0.293727
32	0x3ee48db2	0.44639355
33	0x3ea61a66	0.32442015
34	0x3efac232	0.48976284
35	0x3d561bb5	0.052272517
36	0xbe885301	-0.26625827
37	0x3e0b7284	0.13617903
38	0xbece43d7	-0.40286133
39	0xbdaf8090	-0.08569443
40	0x3e4927d5	0.19644101
41	0x3e6e742a	0.232865
42	0xbf19ab88	-0.6002736
43	0xbf7998ae	-0.97498596
44	0x3e681a4f	0.22666286
45	0xbe3611ee	-0.17780277
46	0xbe60d095	-0.21954568
47	0x3f2dc760	0.6788235
48	0x3d52abe3	0.051433455
49	0x3ea6a845	0.32550254
50	0xbe8b4aeb	-0.27205595
51	0x3ed51c9f	0.416234
52	0x3e9163db	0.28396496
53	0xbdee2ad4	-0.116292626
54	0x3e042677	0.12905298
55	0xbe66ebf8	-0.22550952
56	0x3cfd8674	0.030947901
57	0xbd363e88	-0.04449323
58	0x3e211050	0.15728879
59	0x3f32a60b	0.6978461
60	0x3e9e2fa5	0.30895725
61	0xbd9e177c	-0.07719323
62	0x3e027d99	0.12743224
63	0xbe900a53	-0.28132877
64	0xbe5c2d6e	-0.21501705
65	0xbddee2a9	-0.10883076
66	0x3e1e7912	0.15475872
67	0xbd3bd74e	-0.045859627
68	0xbf59e777	-0.8511881
69	0x3e45a67c	0.1930179
70	0xbfdf9cfb	-1.7469782
71	0xbf142182	-0.5786363
72	0xbe6ecf65	-0.23321302
73	0xbf89bc3b	-1.0760568
74	0xbea7e4a3	-0.32791623
75	0x3e1f0f85	0.15533264
76	0xbecc9938	-0.39960647
77	0x3e94be09	0.29051235
78	0xbef1d02f	-0.47229144
79	0x3ea2469b	0.31694493
80	0xbe67a3ab	-0.22621028
81	0xbe7891e8	-0.24274409
82	0xbf073a2b	-0.5282313
83	0xbe92f6c1	-0.28703883
84	0xbf01736d	-0.5056675
85	0x3e4c0c6c	0.19926614
86	0xbf3e4722	-0.7432729
87	0x3f5bbecd	0.85838014
88	0x3de4177a	0.1113729
89	0x3e388d89	0.18022741
90	0x3ea87363	0.32900533
91	0xbf035e48	-0.51315737
92	0x3e0d0c44	0.1377421
93	0xbef49390	-0.4776883
94	0xbcbaeb82	-0.022817377
95	0x3f83b963	1.029095
96	0xbdb285fb	-0.08716961
97	0x3ddb6d69	0.10714228
98	0x3ea809f9	0.3282011
99	0xbd6446e0	-0.055731654
100	0x3d549f8b	0.051909965
101	0xbdcefdbf	-0.10106992
102	0x3d3d5862	0.046226867
103	0xbf09c495	-0.53815585
104	0xbe6d2fb5	-0.2316273
105	0xbe2d49b9	-0.16922654
106	0xbe8c7c29	-0.27438477
107	0xbb47dce7	-0.0030496658
108	0x3b5778a6	0.0032878309
109	0x3d07e6a8	0.033178955
110	0xbda54717	-0.080702
111	0x3ee8d2d4	0.4547335
112	0xbe9933d7	-0.29922363
113	0xbec97866	-0.3934967
114	0xbe1988c5	-0.1499358
115	0x3e616f7d	0.22015186
116	0x3c6267f8	0.013818733
117	0xbd812f52	-0.06307854
118	0x3e1c166e	0.15242931
119	0x3e6af292	0.22944096
120	0xbe10f452	-0.14155701
121	0x3e9d536c	0.30727708
122	0x3f05a79b	0.5220887
123	0x3ec02e80	0.37535477
124	0x3e83b827	0.25726435
125	0xbe84231a	-0.2580803
126	0x3e5e391b	0.21701472
127	0xbead6c8d	-0.3387188
128	0x3dd5f3f2	0.104469195
129	0xbe04bcbb	-0.1296262
130	0x3e07ea1d	0.13272901
131	0xbe4570a3	-0.19281249
132	0xbe204b19	-0.15653647
133	0x3e04b148	0.12958252
134	0xbe8304de	-0.2558965
135	0xbd99dd02	-0.07512857
136	0x3d5fed62	0.054669745
137	0xbeaa4a3f	-0.3325977
138	0xbeb4f6aa	-0.3534444
139	0xbe8ab2ff	-0.27089688
140	0xbde7de98	-0.11321753
141	0x3ea36afc	0.3191756
142	0xbdf885d9	-0.121349044
143	0x3ebf886b	0.37408766
144	0x3c85cee1	0.016334
145	0x3dc08531	0.09400404
146	0x3eb50f45	0.35363212
147	0x3d03fc6c	0.03222315
148	0x3cbd7310	0.023126155
149	0x3acbaed5	0.0015539775
150	0x3e3d2cea	0.18474165
151	0x3e99a962	0.3001204
152	0xbd949f82	-0.07256986
153	0x3e7e9167	0.24860154
154	0x3e0b7b96	0.13621363
155	0xbde47bb8	-0.1115641
156	0xbc8282c9	-0.015931504
157	0x3e0ff203	0.14057164
158	0x3ead37ca	0.33831626
159	0x3eacfd7e	0.3378715
160	0x3e93a26d	0.2883486
161	0xbf4dbf2a	-0.8036982
162	0xbec1096d	-0.37702504
163	0xbea210bc	-0.31653392
164	0x3e331ffe	0.17492673
165	0xbe2d06f8	-0.1689719
166	0xbe431fb0	-0.19055057
167	0x3e4785db	0.19484656
168	0xbe45485f	-0.19265889
169	0x3eaca768	0.3372147
170	0x3e75bdf5	0.23998244
171	0xbdc95cc9	-0.098321505
172	0x3ee15bb1	0.44015267
173	0xbe3d4637	-0.18483816
174	0xbe623a22	-0.22092488
175	0xbcc5e3b9	-0.024156438
176	0x3e70d8a8	0.23520148
177	0x3ec9e7ae	0.3943457
178	0xbd9ce19c	-0.07660219
179	0xbe0929f5	-0.13394912
180	0xbf8e0bd9	-1.1097366
181	0xbe669cda	-0.22520772
182	0xbeaf48a6	-0.34235114
183	0xbf4fc9a0	-0.8116703
184	0x3e2c109a	0.16803208
185	0x3d6a4d2f	0.057202514
186	0xbef345f5	-0.4751431
187	0x3e00b8a6	0.12570438
188	0x3ed3132c	0.41225564
189	0x3ebf5dfc	0.37376392
190	0xbf9f50cd	-1.2446533
191	0xbde5a2b0	-0.11212671
192	0x3e967d5c	0.29392517
193	0xbeca453c	-0.39505947
194	0xbf0ddffb	-0.5541989
195	0xbe9f88de	-0.3115911
196	0xbeae5a6d	-0.34053364
197	0xbe590692	-0.21193913
198	0xbf4b364a	-0.79379714
199	0x3e4cf10b	0.20013826
200	0x3ed04bc9	0.4068282
201	0xbe76cdb4	-0.24101907
202	0xbe1cb84d	-0.1530468
203	0xbe20c5ea	-0.15700498
204	0x3c60a973	0.013712275
205	0xbecf1a78	-0.40449882
206	0xbea8d042	-0.32971388
207	0x3ef8cb7d	0.4859275
208	0x3d1d1f07	0.038359668
209	0xbe58aa37	-0.21158682
210	0xbd42e1cf	-0.04757863
211	0x3c93ccfe	0.018042084
212	0xbc93e476	-0.018053275
213	0x3e15c7ac	0.1462695
214	0x3d78cfbc	0.060744986
215	0x3ea89ce6	0.32932204
216	0x3e8551f1	0.2603908
217	0x3e1907aa	0.1494433
218	0xbeb4652d	-0.3523344
219	0xbe1636b5	-0.14669307
220	0xbf0600c2	-0.52344906
221	0x3e5ed0e2	0.2175937
222	0x3c64cdf7	0.0139651215
223	0x3ed92cbf	0.4241695
224	0xbe35657a	-0.17714491
225	0xbe275ac2	-0.16343215
226	0x3e519ebf	0.20470713
227	0xbe735957	-0.23764549
228	0x3de082a5	0.109624185
229	0x3dfa3a05	0.122180976
230	0xbeaadded	-0.3337244
231	0x3f5da365	0.86577445
232	0xbd6de655	-0.05808099
233	0x3ec4802b	0.38379034
234	0x3f19d4c8	0.60090303
235	0x3e51a3f5	0.20472701
236	0x3ef73681	0.4828377
237	0x3bb3e68f	0.005490131
238	0x3e5adff6	0.21374497
239	0x3f42b03f	0.7605018
240	0x3e8fed0c	0.2811054
241	0x3e3d2073	0.1846941
242	0x3dfd1a2f	0.1235851
243	0xbe57c4e9	-0.21071209
244	0xbe74d236	-0.23908314
245	0xbe225414	-0.15852386
246	0xbe5eaa1c	-0.21744579
247	0xbdf51efe	-0.11968802
248	0x3ec7cfac	0.3902563
249	0xbd54360b	-0.051809352
250	0xbe7688e5	-0.24075659
251	0xbee4eb59	-0.44710806
252	0xbe465167	-0.1936699
253	0x3e86a5ee	0.2629847
254	0xbca27ea2	-0.019835774
255	0x3f048cf9	0.5177761

state_layer.2.bias f4 [32]
0	0xbc0014fb	-0.007817502
1	0xbea074a1	-0.3133898
2	0xbe423baf	-0.1896808
3	0x3d09e0b1	0.033661548
4	0x3dd0f43a	0.102028325
5	0xbda72b42	-0.08162548
6	0x3e3dfff4	0.1855467
7	0xbd536c65	-0.051617045
8	0x3e9e248e	0.30887264
9	0xbedb8e9d	-0.42882243
10	0x3df467cb	0.119338594
11	0x3ec9fe2c	0.3945173
12	0x3e52e6b5	0.2059582
13	0xbe214a88	-0.15751088
14	0xbe9b0196	-0.30274647
15	0xbcea8be9	-0.028631167
16	0x3d84aadb	0.064779006
17	0xbd1f0e99	-0.03883228
18	0x3e2eb8c5	0.17062671
19	0xbe80db52	-0.25167328
20	0x3e60f2a7	0.21967565
21	0xbe1528f1	-0.14566399
22	0xbead707c	-0.3387488
23	0x3cfd5a54	0.03092686
24	0x3d237dfd	0.039915074
25	0x3e7f3553	0.24922685
26	0x3d194150	0.037415802
27	0x3d027b4e	0.031855874
28	0xbe774573	-0.24147587
29	0x3e31f351	0.17377974
30	0x3ec60d48	0.38682008
31	0x3eb7653f	0.35819432

action_layer.0.weight f4 [32, 1]
0	0x3aef3622	0.0018250386
1	0xbe5ae6f8	-0.2137717
2	0x3e830960	0.2559309
3	0xbe3c0c8e	-0.18364164
4	0x3f18c289	0.5967184
5	0xbdb527fd	-0.08845518
6	0x3e5ae74e	0.21377298
7	0x3cf51c89	0.029920833
8	0xbe58b347	-0.21162139
9	0xbe385eae	-0.18004867
10	0x3f0eac68	0.5573182
11	0xbf01877c	-0.5059736
12	0xbc2ba2f8	-0.0104758665
13	0x3e70a62f	0.23500894
14	0x3ea06519	0.3132713
15	0x3ed910cd	0.4239563
16	0xbf1ec98e	-0.620263
17	0x3ebc8322	0.36818796
18	0xbe3db737	-0.18526922
19	0xbec23320	-0.3792963
20	0xbf0d67a3	-0.5523626
21	0x3d67d420	0.056598783
22	0xbf13fe43	-0.5780985
23	0x3bd7d400	0.0065865517
24	0x3f84a630	1.0363216
25	0x3eacedf6	0.337753
26	0x3f3361bb	0.70071
27	0xbe0d904a	-0.13824573
28	0xbd792007	-0.06082156
29	0xbdf995d0	-0.121867776
30	0xbee2cf60	-0.4429884
31	0xbf41f8c9	-0.7577024

action_layer.0.bias f4 [32]
0	0x3e54e0cd	0.2078888
1	0xbf10485c	-0.5636041
2	0x3eeca060	0.46216106
3	0x3ef95c37	0.48703167
4	0x3f388c87	0.7208943
5	0x3da06310	0.07831395
6	0x3ec2a5fa	0.38017255
7	0x3f6b975c	0.9202783
8	0x3f83e5a9	1.0304462
9	0x3f37042f	0.7149076
10	0xbe8b7cb4	-0.27243578
11	0x3ed7d7f1	0.42156938
12	0x3e5e65bb	0.21718495
13	0xbef9b952	-0.487742
14	0x3f57070d	0.83995134
15	0xbf6202e0	-0.88285637
16	0xbf8c1ea7	-1.0946854
17	0xbd9484d1	-0.07251895
18	0x3f0b6762	0.54454625
19	0x3e93f544	0.2889806
20	0xbe6d2499	-0.23158492
21	0xbf24befa	-0.6435391
22	0xbf50946d	-0.8147648
23	0xbf12f3d8	-0.57403326
24	0xbf4f5125	-0.8098319
25	0x3f5c3bf2	0.8602897
26	0x3e7e665b	0.24843733
27	0xbe2a3142	-0.16620353
28	0x3e4c768a	0.19967094
29	0xbea18138	-0.315439
30	0x3eaf8cab	0.3428701
31	0xbecf423b	-0.40480217

out_layer.0.weight f4 [256, 64]
0	0xbe98ca26	-0.29841727
1	0x3da97361	0.0827396
2	0xc002091b	-2.0318058
3	0xbe489a26	-0.19590053
4	0xbf61484c	-0.8800094
5	0x3f3e90cf	0.7443971
6	0x3e532375	0.20618995
7	0x3c9ae0f1	0.018906089
8	0xbe212503	-0.15736775
9	0x3e6a3697	0.22872387
10	0xbe9ad73e	-0.30242342
11	0xbecd7d54	-0.4013468
12	0x3f11c52f	0.56941503
13	0x3e1834e7	0.1486393
14	0x3ed07896	0.40717
15	0xbee60fa5	-0.4493381
16	0x3d3b0bad	0.04566543
17	0x3f0fcedb	0.5617501
18	0x3e966851	0.29376462
19	0x3f7ebd0a	0.995072
20	0xbf00c090	-0.5029383
21	0x3e0c4e03	0.13701634
22	0x3dd2b8be	0.10289143
23	0x3bc62c09	0.00604773
24	0xbe7485e9	-0.23879208
25	0x3dfb92c2	0.12283851
26	0xbdf3a8ac	-0.11897406
27	0xbd1d4125	-0.038392205
28	0x3f25e2cc	0.6479919
29	0x3f6ee3c0	0.9331627
30	0x3f15b60b	0.584809
31	0xbf5c619f	-0.8608646
32	0xbe3534aa	-0.17695871
33	0xbdce5678	-0.10075086
34	0xbee26d21	-0.44223884
35	0xbdaf8737	-0.08570712
36	0xbe436370	-0.19080901
37	0x3c991a5d	0.018689329
38	0xbf0ab025	-0.54175025
39	0xbe61c919	-0.22049369
40	0xbe467ef6	-0.19384369
41	0xbd332a1f	-0.04374134
42	0xbeaeb050	-0.3411889
43	0x3d60c818	0.054878324
44	0xbe816e0f	-0.2527928
45	0xbdc11bec	-0.09429154
46	0xbedd54c5	-0.43228737
47	0xbda9f34c	-0.08298358
48	0xbdc32f90	-0.09530556
49	0xbed9af05	-0.42516342
50	0xbe3d7b2a	-0.18504015
51	0x3d344925	0.04401507
52	0x3e95d7d4	0.29266226
53	0xbd70970c	-0.0587378
54	0x3dd6f651	0.104962
55	0xbdb1e788	-0.08686739
56	0xbf10116f	-0.562766
57	0xbec96faa	-0.39343005
58	0xbecc4ffb	-0.3990477
59	0x3e073e77	0.13207422
60	0xbdfc220d	-0.12311182
61	0xbcb8bc70	-0.022550792
62	0x3e0b2f33	0.13592224
63	0xbe988f77	-0.29796955
64	0xbe08c139	-0.13354959
65	0xbe06b768	-0.13155901
66	0x3c019d40	0.0079110265
67	0xbcd0404a	-0.02542128
68	0xbe21d1ae	-0.15802643
69	0xbda1c48f	-0.07898819
70	0xbdb18d59	-0.08669538
71	0x3d7797ac	0.06044738
72	0xbdb444fd	-0.08802221
73	0xbc860ab4	-0.016362526
74	0x3dc15aee	0.094411716
75	0xbd5a4d9f	-0.05329668
76	0x3d455eb2	0.04818601
77	0xbe1b5a57	-0.1517118
78	0xbd950bd5	-0.072776474
79	0xbe38eb9e	-0.18058631
80	0x3c4a5d5f	0.012351363
81	0xbe2347b3	-0.1594532
82	0xbdb36401	-0.087593086
83	0xbd0dd119	-0.03462324
84	0xbd9a5f6a	-0.0753773
85	0x3c13ac11	0.009013192
86	0x3d88068a	0.06641872
87	0x3d4f36f5	0.05058952
88	0xbe6afef4	-0.2294882
89	0xbc4da515	-0.012551566
90	0x3d8031d0	0.06259501
91	0xbe666dfe	-0.22502896
92	0xbdb89e93	-0.09014621
93	0xbd9b773f	-0.07591104
94	0x3d5d8b2e	0.05408781
95	0xbe1620bb	-0.14660923
96	0xbd8e3dd4	-0.069453865
97	0x3de6d740	0.112715244
98	0xbdae31c1	-0.085055836
99	0x3ca8f954	0.020626701
100	0xbc8078f3	-0.015682673
101	0x3c8d6513	0.01726011
102	0xbe1aa990	-0.15103745
103	0x3d35ca36	0.044382297
104	0xbd98ebdb	-0.07466861
105	0xbe2012be	-0.1563215
106	0xbcb36c57	-0.021902246
107	0x3b53185c	0.0032210564
108	0xbd826e8b	-0.06368741
109	0xbdc52676	-0.096264765
110	0x3d22248c	0.039585635
111	0xbce6a768	-0.028155997
112	0x3de1b274	0.11020365
113	0x3d7348cd	0.0593956
114	0xbe19457c	-0.14967912
115	0xbde2b81d	-0.11070273
116	0xbe1ffaf8	-0.1562308
117	0x3dd0b000	0.10189819
118	0xbdc6093e	-0.096697316
119	0xbdbf09b4	-0.093280226
120	0x3da3de38	0.08001369
121	0xbdc5d5ca	-0.09659918
122	0xbd92f229	-0.07175095
123	0xbe806b00	-0.25081635
124	0xbdd2c0eb	-0.102907024
125	0xbc2403e0	-0.0100106895
126	0xbe1e6042	-0.15466407
127	0x3d6f6a28	0.058450848
128	0x3e12f8ba	0.14352694
129	0x3e620b6e	0.22074673
130	0xbe9ed3db	-0.31021008
131	0xbe181f37	-0.14855658
132	0x3e7de8c6	0.24795827
133	0xbec37b95	-0.38180223
134	0xbc67ba8f	-0.0141436
135	0x3c3ae3c5	0.011406844
136	0x3e2a929f	0.16657494
137	0x3e1b904b	0.15191762
138	0xbec4bde5	-0.38426128
139	0x3ec844d0	0.39115
140	0x3eea91c8	0.45814347
141	0x3e99d74b	0.30047068
142	0x3dfff0a2	0.12497069
143	0x3e97b34f	0.2962899
144	0xbe8f8f75	-0.28039137
145	0x3edd023c	0.43165767
146	0x3e9d30c6	0.30701274
147	0x3e71df1c	0.23620266
148	0xbf68101a	-0.9064957
149	0x3e0c6802	0.13711551
150	0xbd9ecd53	-0.07754006
151	0xbdc579ff	-0.096424095
152	0x3e51ec66	0.20500335
153	0x3e554bfb	0.20829765
154	0x3e5d71da	0.21625462
155	0xbee6f4cc	-0.4510864
156	0x3e8ac3ae	0.27102417
157	0x3e2d93eb	0.16950957
158	0x3d114dbf	0.035474535
159	0xbdad364b	-0.08457621
160	0x3e057d32	0.1303604
161	0x3cc7b188	0.024376646
162	0x3e2574cb	0.16157834
163	0xbcd61cce	-0.026136782
164	0x3e92a8ca	0.286444
165	0xbe1d90d0	-0.15387273
166	0x3e6f5fad	0.23376341
167	0x3d8050aa	0.062653854
168	0x3d8fa745	0.07014326
169	0x3e01c34c	0.12672156
170	0x3e6885e6	0.22707328
171	0x3ad681aa	0.0016365547
172	0x3d9c147e	0.07621096
173	0x3c3d5b35	0.01155739
174	0x3db3a1be	0.08771084
175	0xbc218383	-0.009858015
176	0xbe2f8baa	-0.17143121
177	0x3ea8e458	0.32986712
178	0x3e0616ce	0.13094637
179	0xbc97764d	-0.018489027
180	0xbdced89c	-0.10099909
181	0xbd100a08	-0.035165817
182	0xbe95060f	-0.29106185
183	0x3decf654	0.11570421
184	0x3de34d71	0.11098755
185	0x3e752adf	0.23942135
186	0x3e141421	0.14460804
187	0xbdfb6d0c	-0.122766584
188	0xbbffcd53	-0.007806459
189	0xbd23f1e8	-0.04002562
190	0xbdfc5d3c	-0.123224705
191	0xbdc66915	-0.096880116
192	0x3d75b9dc	0.059991702
193	0xbbc57d65	-0.006026911
194	0xbe2e87dd	-0.17044015
195	0x3e9ed8bb	0.31024727
196	0x3e72fa32	0.23728254
197	0xbfe99559	-1.8248702
198	0xbdff1850	-0.12455809
199	0xbd935eed	-0.0719584
200	0xbde2caed	-0.11073861
201	0xbc2959db	-0.010336365
202	0x3dc78630	0.09742391
203	0x3f0b7546	0.5447582
204	0xbe187815	-0.14889558
205	0xbde380a0	-0.11108518
206	0xbdc72304	-0.097234756
207	0x3d5f25e9	0.054479513
208	0xbf0c78e7	-0.5487198
209	0x3c0f72a5	0.008755361
210	0x3e90a1f2	0.28248554
211	0xbdce1a7f	-0.100636475
212	0xbfaf5fa1	-1.3701059
213	0x3e8407ba	0.25787145
214	0xbd9323bb	-0.071845494
215	0xbdbc8e26	-0.092068
216	0x3e23053d	0.15919967
217	0x3c117078	0.008876912
218	0x3e2afee7	0.166988
219	0xbf6d453e	-0.9268378
220	0x3f429d90	0.7602167
221	0x3df397e4	0.11894205
222	0x3dfb6107	0.12274366
223	0x3ea361a0	0.3191042
224	0x3d069bb7	0.032863345
225	0xbd8e9f30	-0.06963956
226	0x3db23830	0.08702123
227	0xbd3154f8	-0.043293923
228	0x3e2805d2	0.1640847
229	0x3d934429	0.07190735
230	0x3e1e3f6a	0.15453878
231	0x3db50270	0.088383555
232	0xbbac925c	-0.005266471
233	0xbca55095	-0.020180026
234	0xbdae9e85	-0.08526329
235	0xbdc8c553	-0.098032616
236	0xbd896fe1	-0.06710792
237	0x3e23bd59	0.15990199
238	0x3cd46760	0.0259282
239	0x3e08e6cb	0.1336929
240	0xbeede10b	-0.46460757
241	0x3e0d4353	0.13795213
242	0x3e0699be	0.13144585
243	0x3d881ab9	0.06645722
244	0xbe76c66d	-0.24099131
245	0x3de07c5c	0.1096122
246	0xbe775223	-0.24152426
247	0xbdf1fb98	-0.11815566
248	0xbd981539	-0.07425923
249	0x3e1229a3	0.14273696
250	0x3d9e321a	0.077244
251	0xbe0c041b	-0.13673441
252	0x3d423860	0.047417045
253	0x3d4bed4c	0.04978685
254	0xbcbcf1df	-0.023064552
255	0xbe15b095	-0.14618142

out_layer.0.bias f4 [256]
0	0xbe710444	-0.23536783
1	0xbe31e50e	-0.17372534
2	0x3e51bf0f	0.2048304
3	0x3e38ce21	0.18047382
4	0x3e9b44a5	0.3032581
5	0x3e3a5099	0.18194808
6	0xbdeb2222	-0.1148112
7	0x3d9bf3d3	0.07614865
8	0xbd85c15d	-0.06531022
9	0xbd1e15b6	-0.038594924
10	0x3dc63af8	0.09679216
11	0xbd236eb2	-0.03990049
12	0xbd61acc3	-0.0550964
13	0x3e0169b6	0.12637982
14	0x3dc18ff4	0.09451285
15	0xbe0cfaa9	-0.13767494
16	0xbcbecbae	-0.023290481
17	0xbda959f9	-0.08269114
18	0x3cd218b0	0.025646538
19	0x3e2c1716	0.16805682
20	0x3dfeaf6e	0.12435804
21	0x3de38b9f	0.11110615
22	0xbc83d6d6	-0.016093653
23	0x3d71ba4d	0.05901556
24	0x3c80e1f9	0.015732752
25	0xbe775cf2	-0.2415655
26	0x3df38fd3	0.11892667
27	0xbda2e860	-0.07954478
28	0xbe01bf01	-0.12670518
29	0xbc0b2273	-0.0084921
30	0x3e190716	0.1494411
31	0x3ba859ff	0.0051376815
32	0xbdd7c713	-0.10536017
33	0x3daaa99f	0.08333134
34	0x3e2dec06	0.16984567
35	0x3d9d6b51	0.076864846
36	0xbbd1c299	-0.0064013717
37	0x3ce7e29a	0.028306294
38	0x3e92071e	0.28521055
39	0x3edd66e3	0.4324256
40	0xbe175e8a	-0.14782158
41	0x3d269869	0.040672693
42	0xbe25e410	-0.1620028
43	0x3e29df8c	0.16589183
44	0x3ca25b68	0.019818977
45	0xbbf14d23	-0.0073639317
46	0xbdf8a5fa	-0.121410325
47	0x3dc441d9	0.09582872
48	0xbd729930	-0.059228122
49	0xbe11ab31	-0.1422546
50	0xbc849c8e	-0.016187932
51	0xbde7d7ea	-0.11320479
52	0x3e7853a9	0.24250664
53	0xbca09589	-0.019602554
54	0xbead7954	-0.3388163
55	0xbe1cd33f	-0.15314959
56	0xbd8e9d1d	-0.06963561
57	0xbdc73a83	-0.09727957
58	0x3d3dfe98	0.046385378
59	0xbe1e81ad	-0.15479155
60	0x3ea186a2	0.3154803
61	0xbda8997a	-0.08232398
62	0xbd97a6d6	-0.07404868
63	0x3dd4871c	0.103773326
64	0xbe16157a	-0.1465663
65	0x3d0c8b1e	0.03431236
66	0x3e7ba5c3	0.24574952
67	0x3e96f46b	0.2948335
68	0x3dad70fa	0.08468814
69	0xbde52961	-0.11189533
70	0x3db27c76	0.08715145
71	0x3d373ee4	0.04473771
72	0xbded69ee	-0.1159247
73	0x3e26807a	0.16259947
74	0xbe08c61a	-0.1335682
75	0x3e427a49	0.1899196
76	0xbde41a42	-0.11137821
77	0xbdc860d2	-0.09784092
78	0x3d9de95d	0.07710526
79	0x3e889839	0.26678637
80	0x3e4378e9	0.19089092
81	0xbda00afe	-0.078145966
82	0x3e1418fe	0.14462659
83	0xbe2051e6	-0.15656242
84	0x3e544f55	0.20733388
85	0xbda12b19	-0.07869548
86	0x3dcacfc4	0.099029094
87	0xbd2c7b8e	-0.04211002
88	0x3e35a3da	0.17738286
89	0xbd18247e	-0.037144177
90	0xbe458aa7	-0.19291173
91	0x3caed87c	0.021343462
92	0xbcf6f6da	-0.030147005
93	0xbe1488f7	-0.14505373
94	0x3d8a691d	0.0675833
95	0x3d7c8b37	0.061656203
96	0x3e517e32	0.20458296
97	0xbd3a50cf	-0.04548722
98	0xbe1dac56	-0.15397772
99	0x3e19948d	0.14998074
100	0x3c8ec20f	0.017426519
101	0xbd23b752	-0.03996975
102	0xbe1f0c91	-0.15532137
103	0x3dbdd24e	0.09268628
104	0xbe04c578	-0.12965953
105	0xbe226a52	-0.1586087
106	0xbdd297ab	-0.102828346
107	0x3e81313a	0.2523287
108	0x3d6716dd	0.05641829
109	0xbdd7461e	-0.10511421
110	0x3cd813dd	0.026376659
111	0x3d9dad37	0.07699054
112	0xbe0af034	-0.13568193
113	0x3e631253	0.22174959
114	0x3dbbb968	0.09166223
115	0x3e14d72c	0.14535207
116	0x3e79035c	0.24317688
117	0x3d21aa35	0.039468963
118	0x3e0bf7d8	0.13668764
119	0x3e2ec04e	0.17065546
120	0x3d2274d1	0.039662186
121	0xbe248d77	-0.1606959
122	0x3e26bafd	0.16282268
123	0x3ce90ac0	0.028447509
124	0xbe2bd4ce	-0.16780397
125	0x3da83071	0.082123645
126	0x3e8a04f7	0.26956913
127	0xbd6bd455	-0.057575542
128	0xbdb8bb91	-0.090201505
129	0xbdfeb97b	-0.12437721
130	0x3e496b1f	0.1966977
131	0x3e3bc7ad	0.18337889
132	0x3dac87dd	0.08424351
133	0xbc25fd50	-0.010131195
134	0x3e96ad69	0.29429176
135	0xbd00bd7c	-0.031430706
136	0x3cb29a6b	0.021802148
137	0x3de1975d	0.110151984
138	0x3d118e14	0.035535887
139	0xbe20c6e3	-0.1570087
140	0xbe0ac4cc	-0.13551635
141	0xbe1a8f49	-0.15093721
142	0xbd42bb05	-0.047541637
143	0x3ce9f3c5	0.028558621
144	0x3e72b793	0.2370284
145	0x3e98b902	0.2982865
146	0x3c075528	0.008260049
147	0x3d46f705	0.04857542
148	0xbd5b8615	-0.053594667
149	0x3db1819d	0.086673
150	0xbe23de6e	-0.16002819
151	0xbd42b8d8	-0.047539562
152	0xbdf4d91b	-0.11955472
153	0xbdcf23f0	-0.101142764
154	0x3d896aa0	0.0670979
155	0x3d158c42	0.036510713
156	0x3dce12dd	0.10062192
157	0x3e95fdc3	0.29295167
158	0x3d2f3544	0.042775407
159	0x3e6112d3	0.21979837
160	0xbd66c636	-0.056341372
161	0x3e298d0b	0.1655771
162	0xbd5886ab	-0.052862804
163	0x3cb7886a	0.022403914
164	0xbd62abe0	-0.055339694
165	0x3ce64160	0.028107345
166	0x3e3545d0	0.17702413
167	0x3cabc70e	0.02096894
168	0x3e333ffb	0.17504875
169	0x3deb09cf	0.1147648
170	0xbde0964a	-0.10966165
171	0x3e10260b	0.14077012
172	0x3dd6e693	0.10493197
173	0xbd89852c	-0.06714854
174	0xbe004fcf	-0.12530445
175	0x3d9b5bfd	0.07585905
176	0x3e2b8481	0.16749765
177	0x3d84bdc3	0.06481507
178	0x3e6dd972	0.2322748
179	0xbcfe1b07	-0.031018747
180	0xbdbe88f0	-0.093034625
181	0xbdc173fa	-0.09445949
182	0x3dd5590a	0.104173735
183	0x3de5da15	0.112232365
184	0xbd398ce4	-0.04530038
185	0x3e430d7c	0.19048113
186	0xbe120087	-0.14258014
187	0xbe02659d	-0.12734075
188	0x3d767f07	0.060179736
189	0xbd506039	-0.050873015
190	0x3d4dfaf3	0.050288152
191	0x3c3591ff	0.011082171
192	0xbd9ad7a1	-0.07560659
193	0x3e5ec4cd	0.21754761
194	0x3dd185df	0.10230612
195	0x3cf8aa50	0.030354649
196	0xbd8be764	-0.06831244
197	0xbd7bfe24	-0.061521664
198	0xbd1019a2	-0.035180695
199	0x3e54bd12	0.2077525
200	0xbdb5bbb9	-0.08873696
201	0x3e0b8a5a	0.13626996
202	0x3e990ce9	0.29892662
203	0xbe0b63ac	-0.1361224
204	0xbcf46524	-0.029833384
205	0xbd13967e	-0.036032192
206	0xbe16b846	-0.14718732
207	0x3da43b6f	0.080191486
208	0x3d8538ec	0.065049976
209	0x3cc84f37	0.024451835
210	0xbe3270e5	-0.17425878
211	0x3daaf553	0.08347573
212	0xbd6815bd	-0.056661356
213	0xbe1858bf	-0.14877604
214	0xbcb1cdba	-0.021704543
215	0x3e235f2f	0.15954278
216	0xbd9a1268	-0.07523042
217	0x3e8c5080	0.27405167
218	0xbdfe58e1	-0.12419296
219	0x3e2c558d	0.1682951
220	0xbcb06258	-0.021531269
221	0xbdccd7bc	-0.100020856
222	0x3d1408ff	0.03614139
223	0x3d847091	0.06466783
224	0x3e5c2262	0.21497491
225	0x3daf659e	0.08564304
226	0x3e579469	0.21052708
227	0xbe223260	-0.15839529
228	0xbc8bd1bb	-0.01706778
229	0xbd38ee5e	-0.0451492
230	0xbe0a7365	-0.13520582
231	0xbe18dc9f	-0.1492791
232	0xbe3fde21	-0.18737079
233	0xbe38205c	-0.17981094
234	0xbdd8dca2	-0.10588957
235	0x3d47c5d2	0.04877264
236	0xbdce7c69	-0.10082323
237	0x3ce6796d	0.028134072
238	0x3e1393a8	0.14411795
239	0x3df98baf	0.12184846
240	0x3db1d1a2	0.086825624
241	0x3d837013	0.06417861
242	0x3dc9ca7c	0.09853074
243	0xbe1324eb	-0.14369552
244	0xbd514a25	-0.0510961
245	0x3e025d06	0.12730798
246	0x3da2cde1	0.079494245
247	0xbdf95112	-0.12173666
248	0x3e8e0a5f	0.27742288
249	0x3cc25e55	0.023726622
250	0x3d93403f	0.07189988
251	0xbdd8a291	-0.10577882
252	0x3e1d43a9	0.15357842
253	0xbce5472a	-0.027988035
254	0x3cd89e54	0.026442684
255	0x3cd6cf3b	0.026221862

out_layer.2.weight f4 [256, 256]
0	0xbe1cf5d5	-0.15328152
1	0x3cc69acf	0.02424374
2	0x3e71484f	0.2356274
3	0x3d96f217	0.07370394
4	0x3dc84a80	0.09779835
5	0x3e2694e8	0.1626774
6	0xbb2bda17	-0.002622252
7	0x3e30d862	0.17270043
8	0xbc890ac1	-0.01672876
9	0x3d162692	0.036657877
10	0x3d40a05b	0.047027927
11	0xbc8f7e0e	-0.017516162
12	0xbd15dcda	-0.036587574
13	0x3e0daadb	0.13834707
14	0xbdace48e	-0.08442031
15	0xbd99b7f2	-0.07505788
16	0xbda78472	-0.08179559
17	0xbcc47291	-0.02398041
18	0x3c455883	0.012045029
19	0x3dd4e4ec	0.10395226
20	0x3dfb8d9f	0.122828715
21	0xbc5d1774	-0.013494361
22	0x3d98ef41	0.07467509
23	0x3b96f9fd	0.0046074376
24	0x3cc05525	0.0234781
25	0x3d8a08a7	0.067399316
26	0x3e2fb7b6	0.17159924
27	0xbcb0444a	-0.021516938
28	0xbd558927	-0.05213275
29	0xbcfa9bb8	-0.03059183
30	0xbdbaf6be	-0.091290936
31	0x3e0e475b	0.13894407
32	0xbc514e03	-0.012774947
33	0x3e64aadd	0.22330804
34	0x3e34df5e	0.17663333
35	0x3ca33e33	0.01992712
36	0xbdb92aba	-0.090413526
37	0x3d18440b	0.037174266
38	0x3ee72b38	0.4515016
39	0x3e74fdff	0.23925017
40	0xbc2ca68c	-0.010537755
41	0x3e41c1a7	0.18921529
42	0xbdc99d08	-0.098444045
43	0x3d6489da	0.055795528
44	0x3d09828f	0.033571776
45	0xba9b41fe	-0.0011845229
46	0x3d1e2018	0.038604826
47	0x3e11e548	0.1424762
48	0x3d9f4170	0.07776153
49	0xbdb21979	-0.08696265
50	0x3d94a4bf	0.07257985
51	0xbbb7a560	-0.005604431
52	0x3e864697	0.2622573
53	0x3c28a0cd	0.010292244
54	0x3f282c6e	0.65692794
55	0xbd421398	-0.047381967
56	0x3de44875	0.111466326
57	0xbd1943a3	-0.03741802
58	0x3e2ae567	0.16689073
59	0x3d1f9dd5	0.03896888
60	0x3e077b97	0.1323074
61	0xbb7a7f47	-0.0038222836
62	0x3d49cf38	0.049269885
63	0x3d16272d	0.036658455
64	0xbc399f4b	-0.011329482
65	0x3bf3aa58	0.007436078
66	0x3e71b808	0.23605359
67	0x3e87d814	0.26532042
68	0xbdcf5ca3	-0.10125091
69	0x3d2e2a2c	0.042520687
70	0xbd121a20	-0.035669446
71	0x3cc496f1	0.023997756
72	0xbee7c907	-0.4527056
73	0x3dd42428	0.10358459
74	0xbccf4a78	-0.025304064
75	0x3ccc832c	0.024964891
76	0x3d9a5454	0.075356156
77	0xbd7556b0	-0.059897125
78	0x3d9d3453	0.07675996
79	0x3e8b8d2d	0.27256146
80	0x3dc44d77	0.09585088
81	0xbbd32fb0	-0.006444894
82	0x3edf17a8	0.43572736
83	0xbdacb5b1	-0.084330924
84	0x3e87e882	0.26544577
85	0x3eb95761	0.36199477
86	0x3d53f6e3	0.05174912
87	0x3d967936	0.07347338
88	0x3e722d38	0.23650062
89	0x3d149da0	0.036283135
90	0xbcdf1e70	-0.027236193
91	0x3d25066d	0.04028933
92	0x3eb14cac	0.34628808
93	0x3b493225	0.0030700054
94	0x3d25450f	0.040349063
95	0x3d6869e5	0.056741614
96	0x3d9cf15e	0.07663225
97	0x3dc69d4b	0.0969797
98	0x3d4e0eb1	0.05030698
99	0x3da7e8cb	0.081986986
100	0xbd473811	-0.048637453
101	0xbd9cf545	-0.07663969
102	0xbc0439a6	-0.008070385
103	0xbbc9d3db	-0.0061592883
104	0x3daca61e	0.08430122
105	0x3cf580e2	0.029968683
106	0xbe8c3e37	-0.27391216
107	0x3e41bd62	0.189199
108	0x3c8ecce6	0.017431688
109	0x3d2d33ca	0.042285718
110	0xba905eb7	-0.0011014555
111	0xbb0f9fda	-0.0021915347
112	0xbd2b0ce1	-0.04176033
113	0x3e6c3af4	0.23069364
114	0x3d1bf96c	0.038079664
115	0x3e0a0523	0.13478522
116	0x3e8afb73	0.27144966
117	0xbcebe212	-0.028794322
118	0x3da24a6f	0.07924353
119	0x3db665c8	0.08906132
120	0xbd0b626a	-0.0340294
121	0xbc74a580	-0.014932036
122	0xbd402d1a	-0.046918012
123	0xbb292ad1	-0.0025812874
124	0xbcae56a2	-0.021281544
125	0xbceb52d3	-0.028726017
126	0x3e339c00	0.17539978
127	0xbd97c1b3	-0.07409992
128	0xbd219017	-0.039444055
129	0xbbea88e6	-0.007157433
130	0x3e52fafa	0.20603552
131	0x3c9fbf87	0.019500507
132	0x3da0e9d0	0.07857096
133	0x3d0e3fa4	0.03472866
134	0x3d6cd826	0.057823323
135	0x3cc4940c	0.023996376
136	0x3ec50650	0.3848138
137	0x3d430b0d	0.04761796
138	0xbbf4cce0	-0.007470712
139	0x3d8f7f5d	0.070067145
140	0x3d5116fc	0.05104731
141	0x3d9d42c1	0.07678748
142	0xbc24cff0	-0.010059342
143	0xbc68d03d	-0.014209804
144	0x3e0c130c	0.13679141
145	0x3db01074	0.08596888
146	0x3d89843a	0.06714673
147	0xbe662ca5	-0.22477968
148	0x3d9a6e62	0.07540585
149	0x3f1c7d73	0.6112892
150	0xbdcd6397	-0.10028761
151	0x3ccb200c	0.024795555
152	0x3e839871	0.2570224
153	0xbc063315	-0.00819089
154	0x3d9596ff	0.07304191
155	0xbdaaca81	-0.08339406
156	0x3df7469b	0.12074014
157	0x3ec88f09	0.39171627
158	0xbcaa7670	-0.020808429
159	0x3e00bcbd	0.12571998
160	0x3d82e3ec	0.06391129
161	0x3dbc0937	0.09181445
162	0xbd177e71	-0.03698582
163	0x3c8412ed	0.016122306
164	0x3d23d886	0.040001415
165	0x3dc565ba	0.096385434
166	0xbf2b76d0	-0.6697817
167	0x3f4983a8	0.78716516
168	0x3db688c3	0.08912804
169	0xbe2fd99a	-0.17172852
170	0x3c263e28	0.010146655
171	0x3ddf8e5c	0.10915825
172	0x3da493f7	0.080360346
173	0x3df923c0	0.12165022
174	0x3dc43fce	0.09582482
175	0x3e03a643	0.12856393
176	0x3e96850f	0.2939839
177	0xbcf8266f	-0.030291764
178	0x3e10aa98	0.14127576
179	0x3a892941	0.0010464565
180	0x3d963301	0.07333947
181	0xbdac0021	-0.08398462
182	0x3ecd89bd	0.40144148
183	0x3dae4196	0.08508603
184	0x3d41ef75	0.047347505
185	0x3de44072	0.111451045
186	0xbd1ce8d6	-0.038307987
187	0x3c936c97	0.017996116
188	0xbd56f486	-0.05247929
189	0x3c57c914	0.013170499
190	0xbc2c43e9	-0.010514238
191	0x3e185907	0.14877711
192	0xbd1f64bd	-0.03891443
193	0x3dbcb76c	0.092146724
194	0xbe098f6f	-0.13433622
195	0xbc7a5c45	-0.015280788
196	0x3e2cda34	0.16880113
197	0xbd92de21	-0.07171274
198	0x3df83124	0.12118748
199	0x3d7e05d8	0.06201729
200	0x3d3ec2ab	0.04657237
201	0xba49e8df	-0.0007702242
202	0x3e7c9beb	0.24668853
203	0x3dafeaec	0.0858973
204	0x3d427a6f	0.047480043
205	0x3e353505	0.17696007
206	0xba41bc51	-0.0007390427
207	0x3c742c72	0.014903175
208	0x3bea62f7	0.007152911
209	0xbaf0e63c	-0.0018379162
210	0x3c4d5ff3	0.012535083
211	0xbc29d1e2	-0.010364981
212	0x3cfb3c4f	0.030668406
213	0xbbae890c	-0.005326396
214	0x3d66f5bb	0.05638669
215	0x3e4236a8	0.18966162
216	0x3f00a10d	0.50245744
217	0x3e1d021c	0.15332836
218	0x3bdad94d	0.0066787363
219	0x3d44f10c	0.048081443
220	0x3d5ba2bc	0.053621992
221	0x3d49768b	0.049185317
222	0xbb7ed869	-0.0038886315
223	0x3cffab69	0.031209664
224	0x3de3c1cc	0.11120948
225	0x3e45b4cb	0.19307248
226	0xbed0edbe	-0.40806383
227	0x3d9af21d	0.07565711
228	0xbd981208	-0.07425314
229	0x3dab9def	0.08379733
230	0xbd372c21	-0.04471982
231	0xbd5a153c	-0.053242907
232	0x3ce0a12d	0.027420605
233	0x3d8a4365	0.06751136
234	0xbc5283b8	-0.012848787
235	0x3d841016	0.06448381
236	0x3b5d26c2	0.0033745025
237	0xbbd05890	-0.0063582137
238	0x3cf3de93	0.029769218
239	0x3e8f9855	0.28045908
240	0x3d832119	0.06402797
241	0x3d0d9b33	0.034571838
242	0x3d60c6ea	0.0548772
243	0x3d9fe6c2	0.078076854
244	0xbcca6216	-0.024704974
245	0x3e7bf830	0.24606395
246	0x3c3037a3	0.010755452
247	0xbe051357	-0.12995659
248	0x3e6c887f	0.23098944
249	0x3da149ae	0.078753814
250	0x3dbfb965	0.09361533
251	0x3c83f84d	0.01610961
252	0x3dfc2d2f	0.123133056
253	0x3c6b81d3	0.014374214
254	0x3ca744dc	0.020418577
255	0x3979ae64	0.00023811456

out_layer.2.bias f4 [256]
0	0x3e7a70c3	0.24457078
1	0x3e64eac6	0.22355184
2	0xbd1e10d7	-0.03859028
3	0x3e866610	0.26249743
4	0xbd5dceb6	-0.054152213
5	0x3e294025	0.16528375
6	0x3e77ef52	0.24212387
7	0x3b0087ad	0.001961212
8	0x3e7bbc7f	0.24583624
9	0xbd64e54c	-0.055882737
10	0xbd3e1a47	-0.04641178
11	0x3d1469f4	0.036233857
12	0xbd68b1bb	-0.056810122
13	0xbda780c6	-0.081788585
14	0x3e7e0698	0.24807203
15	0x3ea42cb7	0.32065365
16	0x3e20f5ed	0.15718813
17	0xbda9c163	-0.08288839
18	0x3e0d06ff	0.137722
19	0x3d06ea38	0.032938212
20	0xbb920ad7	-0.0044568586
21	0xbd2bf427	-0.04198089
22	0xbd880987	-0.06642442
23	0x3e7f41c1	0.24927427
24	0xbd816cc0	-0.063195705
25	0x3e32b62d	0.17452307
26	0x3e961808	0.2931521
27	0xbdaa24f5	-0.0830783
28	0xbdc3e94e	-0.09565984
29	0x3c1a9419	0.009434723
30	0xbd959ee3	-0.07305696
31	0xbb9d8bde	-0.0048079332
32	0xbc45dc67	-0.012076474
33	0xbd1027f9	-0.03519437
34	0xbc2e1e61	-0.01062736
35	0xbcf353fc	-0.029703133
36	0xbd9d9c23	-0.07695796
37	0xbd1a7af3	-0.03771491
38	0xbdf3ebf2	-0.11910237
39	0x3d7f9420	0.062397122
40	0x3e54faa5	0.20798738
41	0xbcfc739b	-0.030816844
42	0x3e508721	0.20364048
43	0xbe114869	-0.14187779
44	0xbc86cdde	-0.016455587
45	0xbddf745a	-0.10910864
46	0xbcb040a3	-0.021515196
47	0x3e59ebb2	0.21281317
48	0xbd4df2f7	-0.050280537
49	0xbc72d73c	-0.014821824
50	0x3e30f2fb	0.1728019
51	0x3e6c872b	0.23098437
52	0xbcb0c949	-0.021580355
53	0x3e2fc9e9	0.17166866
54	0x3e8123e4	0.25222695
55	0xbdb6e203	-0.08929827
56	0xbce85c9a	-0.028364468
57	0xbd841163	-0.06448629
58	0x3e584ea9	0.21123756
59	0xbd6a6d54	-0.05723317
60	0x3e19a872	0.15005663
61	0x3e293303	0.16523366
62	0x3de9b8f9	0.11412234
63	0x3e63c95c	0.22244781
64	0x3e62a2aa	0.22132364
65	0xbc803ba1	-0.015653433
66	0xbd8c8585	-0.06861404
67	0x3c61cfc9	0.01378245
68	0x3c2ba11d	0.010475424
69	0xbd19ddc9	-0.037565026
70	0xbb07f1fd	-0.0020743601
71	0x3d3ab190	0.045579493
72	0xbb17eef3	-0.0023183196
73	0x3cc7476f	0.024326054
74	0xbc1b4630	-0.009477183
75	0xbd8bcba4	-0.06825951
76	0xbcae525b	-0.021279505
77	0xbd22d907	-0.039757755
78	0x3e7def04	0.24798208
79	0xbd9828b4	-0.074296385
80	0xbd14467a	-0.036200024
81	0x3e36f5e2	0.17867234
82	0xbd2fed36	-0.04295083
83	0x3d0aa757	0.033850994
84	0x3e747d56	0.23875937
85	0x3f404267	0.7510132
86	0xbd59112c	-0.052994892
87	0xbc5aa114	-0.013344068
88	0x3d05504d	0.032547284
89	0x3e8d4fc9	0.27599934
90	0x3c9e3d82	0.019316439
91	0xbb0acb34	-0.0021178247
92	0xbd043291	-0.032274786
93	0xbd373a52	-0.044733353
94	0xbd98109b	-0.07425042
95	0x3e859058	0.26086688
96	0xbd774480	-0.06036806
97	0x3e73db65	0.23814161
98	0x3b3f7682	0.0029214923
99	0x3e5d7735	0.21627505
100	0x3e5b0bb5	0.21391185
101	0x3e51e44f	0.20497249
102	0xbca55b2b	-0.020185074
103	0xbca9fb5a	-0.020749737
104	0xbd13d0f1	-0.036087934
105	0xbc8257f1	-0.015911074
106	0xbd5b4f93	-0.053542685
107	0x3d22872f	0.039679702
108	0xbd51f32a	-0.05125729
109	0xbd0edcf4	-0.034878686
110	0xbd3e29fd	-0.046426762
111	0xbd80fc0b	-0.062980734
112	0x3e1fb199	0.15595092
113	0xbd9ad9a3	-0.07561042
114	0xbd1b679a	-0.0379406
115	0xbdba6872	-0.091019526
116	0x3e6158df	0.22006558
117	0xbd9a2e62	-0.07528378
118	0x3e71b704	0.23604971
119	0x3e3218b7	0.1739224
120	0x3c03ed55	0.00805219
121	0xbde58349	-0.11206681
122	0xbc96ff25	-0.01843221
123	0xbd95156a	-0.07279475
124	0xbd9f81fd	-0.07788465
125	0x3e85eb30	0.26155996
126	0xbde143c7	-0.109992556
127	0x3e54e5fd	0.20790859
128	0xbd31d6a9	-0.043417607
129	0x3e31d6a7	0.1736704
130	0x3ccaab17	0.024739785
131	0x3cf9f45b	0.030512026
132	0xbd932790	-0.0718528
133	0xbb6dc535	-0.0036280875
134	0x3e7df61f	0.24800919
135	0x3e505dc2	0.20348266
136	0xbcacb7e3	-0.021083778
137	0xbc7b21d7	-0.015327892
138	0xbc1f74b1	-0.009732411
139	0xbd3066da	-0.043066837
140	0x3e1a3a8d	0.15061398
141	0x3d0525cd	0.032506753
142	0x3d05e10f	0.032685336
143	0x3c9feabb	0.019521108
144	0xbafe84d9	-0.0019418254
145	0xbd91bfc5	-0.07116655
146	0xbc7e0179	-0.015503281
147	0xbd9625d2	-0.073314324
148	0xbd053746	-0.032523416
149	0xbdaf9970	-0.08574188
150	0x3c82ea1c	0.015980773
151	0xbd552f33	-0.052046966
152	0xbd517864	-0.051140204
153	0x3e01ac48	0.12663376
154	0x3e3bbef6	0.18334565
155	0xbc80366d	-0.015650952
156	0x3e534762	0.20632699
157	0x3c62445c	0.013810243
158	0xbd612bcb	-0.054973405
159	0x3e6d2e05	0.23162086
160	0xbd58a1ed	-0.0528888
161	0x3e814bf5	0.25253263
162	0x3d024ceb	0.031811636
163	0x3d13fd06	0.036129974
164	0x3e076513	0.1322215
165	0x3e59c1f2	0.2126539
166	0x3e751839	0.23935021
167	0x3e6b8401	0.22999574
168	0x3e1fa971	0.1559198
169	0xbd6e6f6a	-0.05821172
170	0xbdb8c20b	-0.09021386
171	0x3d2cff9e	0.042235963
172	0xbc7ddef5	-0.015495052
173	0xbda45596	-0.08024137
174	0x3d14df77	0.036345925
175	0xbb4cc87b	-0.0031247425
176	0x3e93806c	0.28808916
177	0xbcfc4f76	-0.030799609
178	0xbc910d60	-0.017706573
179	0x3e360f42	0.17779258
180	0xbd68e870	-0.056862295
181	0xbdb1dc33	-0.08684578
182	0xbd4a3fee	-0.049377374
183	0x3e8e413b	0.27784142
184	0xbdcc285e	-0.09968637
185	0xbd927da2	-0.07152869
186	0x3e3a3bbb	0.18186848
187	0xbd82cb9a	-0.0638649
188	0x3e83c7a1	0.25738242
189	0x3c532861	0.012888045
190	0x3e55705e	0.20843646
191	0xbc46f29f	-0.012142806
192	0xbce5ec1a	-0.028066684
193	0x3e73b63a	0.23799983
194	0xbd88896e	-0.06666838
195	0xbd326217	-0.043550577
196	0x3e1f4d1e	0.15556762
197	0xbd4bddd8	-0.049772114
198	0x3e6c1f19	0.23058738
199	0xbdd6c5e9	-0.10486967
200	0x3d2bc1a4	0.041932717
201	0x3e83ef4c	0.25768507
202	0x3cb98c44	0.022649892
203	0x3cd35f94	0.025802411
204	0x3e3c99ea	0.18418089
205	0x3e7448f6	0.23855957
206	0xbdd11381	-0.10208798
207	0x3e53c181	0.20679285
208	0xbc4b33d0	-0.01240249
209	0xbda4560e	-0.08024226
210	0xbcb92c0a	-0.022604007
211	0x3e65a713	0.22427015
212	0x3e404fd0	0.18780446
213	0xbdbab038	-0.09115642
214	0xbdd7ce9e	-0.10537456
215	0x3e93b9e2	0.28852755
216	0xbd12cbe1	-0.035838965
217	0xbcd79bb4	-0.026319362
218	0xbdcbcdf0	-0.09951389
219	0xbde7cbfe	-0.11318205
220	0x3e70da8f	0.23520873
221	0xbd00d8dd	-0.031456817
222	0x3e890d74	0.26768076
223	0x3d32c2dc	0.043642864
224	0xbd4d1f41	-0.050078634
225	0x3e465782	0.19369319
226	0x3e2fa5c9	0.17153086
227	0x3e671583	0.225668
228	0xbdb720ba	-0.08941789
229	0xbdaf3d33	-0.08556595
230	0xbc9fbc4d	-0.019498968
231	0xbbd18233	-0.006393695
232	0x3e89ecd3	0.26938495
233	0x3e719d49	0.23595156
234	0x3bece9d1	0.0072300215
235	0xbd633a82	-0.05547572
236	0x3e378022	0.17919973
237	0x3e96463e	0.29350466
238	0x3e73b163	0.23798136
239	0xbdb70cc4	-0.08937982
240	0x3e4596d1	0.19295813
241	0x3e8bddeb	0.27317747
242	0xbd376e9c	-0.04478322
243	0x3e08c1ff	0.13355254
244	0xbdab3b51	-0.08360923
245	0xbde02267	-0.10944062
246	0x3e74ee39	0.23919
247	0x3a4f9580	0.00079187006
248	0x3e62e406	0.22157297
249	0x3e6da81d	0.23208661
250	0xbd249d16	-0.04018887
251	0x3e84abda	0.25912362
252	0xbd4197c0	-0.04726386
253	0xbde2da1d	-0.11076758
254	0x3e8595ad	0.26090756
255	0xbdd1c8da	-0.102433875

out_layer.4.weight f4 [1, 256]
0	0xbdeeb032	-0.116547
1	0xbe08214e	-0.13293955
2	0x3d3fb542	0.04680372
3	0xbde302e0	-0.11084533
4	0xbd26d24a	-0.04072789
5	0xbde74db7	-0.1129412
6	0xbe039539	-0.12849893
7	0x3b0dffd2	0.0021667373
8	0xbe14a7e4	-0.1451717
9	0xbbb816b4	-0.005617941
10	0xbce7808a	-0.028259534
11	0x3d2c56d8	0.04207501
12	0x3c0dd23e	0.008656083
13	0xbd23f9b8	-0.040033072
14	0xbe10031a	-0.14063683
15	0xbe713445	-0.23555095
16	0xbe3e60b1	-0.18591572
17	0xbd81257a	-0.06305976
18	0xbe3effdb	-0.18652289
19	0xbbcd6009	-0.006267552
20	0xb8049ee3	-3.1619227e-05
21	0x3cfbc97d	0.030735726
22	0x3d04a1a1	0.032380704
23	0xbe205d0f	-0.15660499
24	0x3cb837c5	0.02248753
25	0xbddc12ab	-0.10745748
26	0xbe0beacc	-0.13663787
27	0xbd1da729	-0.038489494
28	0xbd608cff	-0.054821964
29	0x3bc12c85	0.0058951997
30	0xbd892fcc	-0.0669857
31	0xb99d79c5	-0.000300361
32	0x3bd9d402	0.0066475878
33	0x3d109307	0.035296466
34	0x3d3e418d	0.046449233
35	0x3d43c810	0.047798216
36	0x3d4e4234	0.050356105
37	0xbcef3e52	-0.029204521
38	0xbd6863b4	-0.05673571
39	0x3ccd5e54	0.025069393
40	0xbe01d424	-0.12678581
41	0x3d1bb675	0.0380158
42	0xbdf1d434	-0.11808053
43	0xbd584bd2	-0.052806683
44	0x3cd1e7a0	0.025623143
45	0xbd524e53	-0.051344227
46	0x3abf67ce	0.001460308
47	0xbdff4115	-0.12463585
48	0x3cee2432	0.029069994
49	0x3c9a053a	0.01880132
50	0xbe015d04	-0.12633139
51	0xbe361cd8	-0.1778444
52	0x3c804168	0.015656188
53	0xbe18497b	-0.1487178
54	0xbe1ac076	-0.1511248
55	0xbc2d0bc6	-0.010561889
56	0xbd74c596	-0.059758745
57	0x3c23e3ad	0.010003013
58	0xbe2eebd9	-0.17082156
59	0x3cb5c785	0.022189865
60	0xbe593a86	-0.21213731
61	0xbe607a60	-0.21921682
62	0xbe5dda1a	-0.2166523
63	0xbe08484e	-0.13308832
64	0xbe20cc7c	-0.15703005
65	0xbd3be407	-0.04587176
66	0x3d20943b	0.039203864
67	0x3cb2c935	0.021824459
68	0xbac7aaac	-0.0015233359
69	0x3d3d970e	0.046286635
70	0x3d83e5e5	0.06440333
71	0x3cba0258	0.022706196
72	0x3bf82694	0.0075729582
73	0x3c740dc6	0.014895862
74	0x3d12a117	0.03579816
75	0xbb8e03cd	-0.004333949
76	0xbca37d84	-0.019957311
77	0x3d797289	0.060900245
78	0xbe1cb854	-0.1530469
79	0xbcfe7c7a	-0.031065214
80	0x3d2fe25d	0.042940486
81	0xbdea161e	-0.1143
82	0x3d1f0e5a	0.038832046
83	0xbc311b56	-0.01080974
84	0xbe0440cd	-0.12915345
85	0x400d3e8a	2.206942
86	0xbcdd5d92	-0.027022157
87	0x3d0caf40	0.03434682
88	0x3cf1c3c4	0.029512294
89	0xbdc2b7c4	-0.09507707
90	0x3c975142	0.018471364
91	0x3c197a2a	0.009367505
92	0x3ca887bb	0.020572534
93	0x3d6ad367	0.057330515
94	0x3b0d763c	0.0021585366
95	0xbe08a22f	-0.13343118
96	0xbc74f4ed	-0.014950973
97	0xbe232b0a	-0.15934387
98	0xbd433267	-0.04765549
99	0xbe1a0592	-0.15041187
100	0xbe0283de	-0.12745616
101	0xbe288475	-0.16456778
102	0x3c7dcd72	0.0154908765
103	0xbcdd43a1	-0.027009787
104	0x3c072af8	0.008249991
105	0xbbd520c3	-0.0065041496
106	0xbd7af6ea	-0.06127063
107	0x3cc91ecc	0.024550818
108	0x3d003b1c	0.03130637
109	0x3c7a6e47	0.015285081
110	0xbba5a874	-0.0050554816
111	0xbd1e55f7	-0.0386562
112	0xbdf4b55d	-0.11948655
113	0xbd31ecbc	-0.043438658
114	0xbce3f51e	-0.027826842
115	0xbce121eb	-0.027481994
116	0xbe02e47b	-0.12782471
117	0xbff8c657	-1.9435529
118	0x3e89d014	0.26916564
119	0xbe45cd44	-0.19316584
120	0x3e1c58dc	0.15268272
121	0xbd13a9f4	-0.03605075
122	0x3cb36a55	0.021901289
123	0x3d01a5f0	0.03165239
124	0x3c81967b	0.015818825
125	0xbe43ab35	-0.19108279
126	0x3c2e0d71	0.010623322
127	0xbe2f91a0	-0.17145395
128	0x3d17ac04	0.03702928
129	0xbdf19d90	-0.11797631
130	0x3d17fe79	0.03710792
131	0xbcb28742	-0.021793012
132	0x3b173bf6	0.002307651
133	0x3ad6650e	0.0016357021
134	0xbe1434fa	-0.14473334
135	0xbe38c7f1	-0.18045022
136	0xbc3af367	-0.011410571
137	0xbd15bbdf	-0.03655612
138	0x3c535b32	0.012900161
139	0x3d10af20	0.035323262
140	0xbe3de2b4	-0.18543512
141	0x3ca21990	0.01978758
142	0x3c3f3e83	0.011672619
143	0x3c00c590	0.007859603
144	0x3d3b0e08	0.045667678
145	0xbc403936	-0.01173239
146	0x3d3709a7	0.04468694
147	0x3bf2ca3f	0.0074093635
148	0xbd180e94	-0.037123278
149	0xbd354b44	-0.044261232
150	0xbbb0f13f	-0.0053998525
151	0xbce2e131	-0.02769527
152	0x3ca8cee6	0.02060647
153	0xbe365cc6	-0.17808828
154	0xbe397fed	-0.18115206
155	0x3d20e18d	0.039277602
156	0xbe412033	-0.1885994
157	0x3d3801e3	0.044923674
158	0xba2aa375	-0.00065093423
159	0xbe309f05	-0.17248161
160	0xbcd2a7c9	-0.025714772
161	0xbddbc343	-0.107306026
162	0x3c6ff069	0.014644721
163	0x3cfe7fd6	0.031066816
164	0xbe4cbc56	-0.1999372
165	0xbe07046d	-0.13185282
166	0xbe0bc1d6	-0.13648161
167	0xbdc59c41	-0.09648944
168	0xbe1c3bce	-0.15257189
169	0xbbb62793	-0.005558917
170	0x3c50c88a	0.012743125
171	0xbc146f69	-0.009059765
172	0xbb94180a	-0.0045194672
173	0xbd17a327	-0.03702083
174	0x3c33fec0	0.01098603
175	0x3cc466e2	0.02397484
176	0xbe0a0843	-0.13479714
177	0xbb2a6764	-0.0026001567
178	0x3ca50c5e	0.020147499
179	0xbe36ae53	-0.17839937
180	0x3c907cff	0.017637728
181	0xbcd4d289	-0.025979297
182	0xbd03b8eb	-0.032158773
183	0xbe14cd6a	-0.14531484
184	0xbc595214	-0.013264198
185	0x3ccbbdbc	0.024870746
186	0xbe2d33f2	-0.16914347
187	0xbbaa1731	-0.005190753
188	0xbe28c3e4	-0.16480976
189	0x3d4bc7e7	0.04975119
190	0xbe24358b	-0.1603605
191	0x3a9a4cb4	0.0011772127
192	0x3c3b419c	0.011429217
193	0xbe04042f	-0.12892221
194	0x3b29970b	0.0025877382
195	0xbb6bc2a7	-0.0035974176
196	0xbe2b6dd1	-0.1674111
197	0xbd48b38e	-0.04899936
198	0xbdb21ccc	-0.08696899
199	0x3d6e8674	0.058233693
200	0x3b92c509	0.004479055
201	0xbe0f787d	-0.14010806
202	0xbb863c4a	-0.0040965425
203	0xbc6f7dc3	-0.014617386
204	0xbe153be0	-0.14573622
205	0xbe0ccd0e	-0.13750097
206	0x3d3dba9c	0.046320543
207	0xbe4fe5cd	-0.20302506
208	0x3b94b10d	0.0045377077
209	0x3d120df3	0.035657834
210	0x3d292f04	0.041304603
211	0xbe13a180	-0.14417076
212	0xbe18ae6c	-0.14910287
213	0xbd7e03b1	-0.06201524
214	0xbd4c3732	-0.049857326
215	0xbe243fe2	-0.16039994
216	0xbd396e48	-0.045271188
217	0x3ca082dd	0.01959365
218	0xbc6e8fc0	-0.01456064
219	0xbc7c5968	-0.0154021755
220	0xbe03ba17	-0.12863956
221	0xbb58b2a8	-0.0033065472
222	0xbe11f92d	-0.1425521
223	0x3d3c7e80	0.046019077
224	0xbaa097b4	-0.0012252242
225	0xbe20bab3	-0.1569622
226	0xbdcd579a	-0.10026474
227	0xbe26a43d	-0.1627359
228	0xbc9f65a1	-0.01945764
229	0xbda511ef	-0.08060061
230	0x3d2fc54c	0.042912766
231	0x3b4029e1	0.0029321837
232	0xbddc9c7b	-0.10772034
233	0xbe0eda51	-0.13950469
234	0x3d0a129b	0.03370915
235	0xbcc66577	-0.024218304
236	0xbe208b25	-0.1567808
237	0xbe0b910c	-0.1362955
238	0xbe0cfdb2	-0.13768652
239	0xba6f0718	-0.00091181835
240	0xbdf191cc	-0.11795387
241	0xbe1a94b4	-0.15095788
242	0x3d1ee76c	0.03879492
243	0xbe36d485	-0.17854507
244	0xbc27c680	-0.010240197
245	0xbc3037d5	-0.010755499
246	0xbe211f4a	-0.15734592
247	0xbc873b74	-0.016507842
248	0xbdb9f1a6	-0.09079294
249	0xbe13a4ef	-0.14418386
250	0x3b808c7b	0.0039229966
251	0xbe078e42	-0.13237861
252	0xbc435442	-0.011921944
253	0xbc6807d8	-0.014162026
254	0xbe2003a5	-0.1562639
255	0xbd9c5326	-0.07633047
