Reinforcement_Learning/KHW/pendulum_actor.pt (torch, 270796 bytes, 5 tensors)

actor_layer.0.weight f4 [256, 3]
0	0xbdad23a9	-0.08454067
1	0xbfc1a702	-1.5129092
2	0xbee9f5b7	-0.45695278
3	0x3eb9a30e	0.36257213
4	0xbec78ef9	-0.38976267
5	0xbea1f908	-0.31635308
6	0xbe896be5	-0.2684013
7	0xbf7bcaaf	-0.98356146
8	0xba814a70	-0.0009864103
9	0xbe5dd5f8	-0.21663654
10	0x3ea3dbd3	0.3200365
11	0x3ed68556	0.41898602
12	0xbf0e209a	-0.55518496
13	0xbf045af7	-0.517013
14	0xbdee8d9f	-0.11648106
15	0xbe854086	-0.2602579
16	0xbfafa5c1	-1.3722459
17	0xbe68dd21	-0.22740604
18	0xbf0dd550	-0.55403614
19	0x3db96f3b	0.09054419
20	0xbea21f76	-0.31664628
21	0xbe2d1cb4	-0.1690548
22	0xbe7480cc	-0.23877257
23	0xbe7ca6e1	-0.24673034
24	0xbe831fad	-0.25610104
25	0x3fa602b8	1.296958
26	0x3ef54ac4	0.47908604
27	0xbf00103a	-0.5002476
28	0x3d5f2f9d	0.054488767
29	0x3b189584	0.0023282478
30	0x3e50d446	0.20393476
31	0xbf78da1d	-0.97207814
32	0xbeb8d882	-0.36102682
33	0x3daab3a0	0.08335042
34	0xbdf1f086	-0.11813454
35	0xbebfacbb	-0.3743647
36	0xbe9e7c06	-0.30953997
37	0x3fa3523b	1.275947
38	0x3e68a500	0.22719193
39	0x3ee97aca	0.45601493
40	0x3e934aaf	0.28767917
41	0x3ccc46af	0.024936048
42	0xbe889615	-0.26677004
43	0xbf3cf487	-0.7381062
44	0x3dc7b0e1	0.09750534
45	0xbebf733a	-0.37392598
46	0x3edba234	0.4289719
47	0xbe72dbb9	-0.2371663
48	0xbf417f89	-0.7558523
49	0x3ed473b8	0.41494536
50	0x3ee1e578	0.44120383
51	0xbe2d3d08	-0.16917813
52	0xbf3c81b8	-0.73635435
53	0x3e8c457e	0.27396768
54	0xbe362970	-0.17789245
55	0x3e14432c	0.14478749
56	0xbe8b8842	-0.27252394
57	0xbf026837	-0.5094027
58	0xbf6527a9	-0.8951364
59	0xbe00da8d	-0.1258337
60	0xbeb66d28	-0.35630155
61	0x3fbbaed2	1.4662726
62	0x3dce2c6f	0.10067069
63	0x3e80b8fd	0.25141135
64	0x3f31121b	0.6916825
65	0x3eeb29dc	0.45930374
66	0xbf05e554	-0.5230305
67	0x3f97f87b	1.1872705
68	0x3eabab81	0.33529285
69	0xbdf9e739	-0.12202305
70	0x3f8adb22	1.0848124
71	0xbd52068b	-0.05127577
72	0xbf48058a	-0.7813345
73	0xbf4492be	-0.7678641
74	0xbe49a1fb	-0.19690697
75	0xbe9e1094	-0.30872023
76	0x3f847f59	1.0351363
77	0x3eb2a215	0.34889284
78	0xbf0cbd3d	-0.54976255
79	0xbf6501bc	-0.8945577
80	0xbe01308d	-0.12616177
81	0x3f053af7	0.520431
82	0xbf2752be	-0.6536063
83	0xbd77a36e	-0.060458593
84	0x3e62d9f2	0.22153452
85	0x3f3afdef	0.7304372
86	0x3eff62cd	0.49880067
87	0xbf4d6456	-0.80231225
88	0x3e17e253	0.1483243
89	0xbecad1be	-0.39613146
90	0xbe9549c0	-0.2915783
91	0xbf507e72	-0.8144294
92	0x3de9111a	0.11380215
93	0xbe94f597	-0.2909362
94	0x3fab2906	1.3371894
95	0x3e7bc70a	0.24587646
96	0x3ec41799	0.38299254
97	0xbef978f3	-0.4872509
98	0x3db256de	0.08707975
99	0xbf5222b8	-0.82084227
100	0x3ea592b7	0.32338497
101	0x3ed4f34c	0.4159187
102	0xbefdf346	-0.49599665
103	0xbf5ef69d	-0.8709505
104	0x3e1977d2	0.14987114
105	0x3ecba589	0.3977473
106	0x3e0e196d	0.13876887
107	0x3ea9e6f6	0.33184022
108	0x3f86911f	1.0513037
109	0xbe466d1b	-0.19377558
110	0xbe5c133f	-0.21491717
111	0xbc0ced37	-0.008601478
112	0xbf14b0b9	-0.5808216
113	0x3eca86c1	0.39555934
114	0x3e03a0ce	0.12854311
115	0xbf976602	-1.1828005
116	0xbeafab07	-0.3431017
117	0x3f3d69bd	0.7398947
118	0xbf78e185	-0.97219115
119	0xbe53bd40	-0.20677662
120	0xbf3c4101	-0.7353669
121	0x3f2a0db7	0.6642718
122	0x3e999242	0.29994398
123	0x3f27a6d8	0.6548896
124	0x3e8fecef	0.28110453
125	0x3f06768e	0.5252465
126	0xbe8bc340	-0.272974
127	0xbf209f99	-0.62743527
128	0x3db8f0f5	0.09030334
129	0x3f01210d	0.50441056
130	0xbe46f93b	-0.19431011
131	0xbed0b630	-0.40763998
132	0x3eb0bb44	0.34517872
133	0xbe21d5a3	-0.15804152
134	0x3e8a81ec	0.27052248
135	0xbdff4feb	-0.12466415
136	0x3ca5a92a	0.020222265
137	0x3ddee77b	0.10883995
138	0xbe36cc6c	-0.17851418
139	0x3e506207	0.20349894
140	0x3c130a15	0.008974572
141	0xbcda2098	-0.02662687
142	0xbfcbdfba	-1.5927651
143	0xbede2b0b	-0.43392214
144	0x3f1a0d33	0.6017639
145	0xbf470934	-0.7774842
146	0xbdf4a221	-0.11944986
147	0xbec70971	-0.3887439
148	0xbfcea97b	-1.6145471
149	0xbda4c293	-0.080449246
150	0x3f00a8e4	0.50257707
151	0xbf0fe524	-0.56209016
152	0x3e95875e	0.2920484
153	0xbf25902f	-0.6467313
154	0xbf22d2cb	-0.63602895
155	0xbe25b5d8	-0.16182649
156	0x3d9a27da	0.07527132
157	0xbf876f92	-1.0580924
158	0x3cf378de	0.02972072
159	0xbf2fc8a1	-0.6866551
160	0x3edd9f5e	0.4328565
161	0xbe54ae1c	-0.20769542
162	0x3ed80971	0.42194703
163	0x3f1bbecd	0.60838014
164	0x3ee9d229	0.45668152
165	0x3d63e160	0.055634856
166	0x3fa82867	1.313733
167	0x3ed5f7a8	0.4179051
168	0xbe12c102	-0.14331439
169	0xbf956b6f	-1.1673411
170	0xbebcafe8	-0.36852956
171	0x3f5e0c52	0.8673755
172	0xbeb1779f	-0.34661576
173	0xbe4685db	-0.19387
174	0x3f6d7310	0.92753696
175	0xbf0a067f	-0.5391616
176	0xbee4d9d9	-0.44697455
177	0x3fa25ba3	1.2684215
178	0x3e69a7a8	0.22817862
179	0xbf14ba87	-0.5809712
180	0xbeee5965	-0.46552578
181	0x3d5becc6	0.0536926
182	0xbe8376fb	-0.25676712
183	0x3e618edf	0.22027157
184	0xbfdd407b	-1.7285303
185	0xbe3ee4af	-0.18641923
186	0xbea413f5	-0.32046476
187	0xbfc26963	-1.5188411
188	0xbc9e4d40	-0.019323945
189	0xbf11671f	-0.56797975
190	0xbef91dfe	-0.48655695
191	0xbe897435	-0.2684647
192	0xbebca82c	-0.36847055
193	0x3f832406	1.0245368
194	0x3ea55eb6	0.3229882
195	0xbf270aa9	-0.6525064
196	0xbddeb443	-0.10874226
197	0xbe970db9	-0.29502657
198	0x3f01db7f	0.5072555
199	0xbe9979a8	-0.2997563
200	0x3e951165	0.29114833
201	0xbdff8efc	-0.12478444
202	0xbf835ed3	-1.0263313
203	0xbe07d885	-0.1326619
204	0xbf07afda	-0.53002703
205	0xbe1d9e77	-0.15392481
206	0x3ee9271f	0.4553766
207	0x3ee78a3c	0.45222652
208	0x3e7c5923	0.24643378
209	0x3d4c2a1e	0.049844854
210	0x3e822c57	0.25424454
211	0x3f6e2311	0.9302226
212	0x3f110547	0.5664868
213	0x3f0e184a	0.5550581
214	0x3e457a51	0.19284941
215	0x3e729842	0.23690894
216	0x3f2950c6	0.66138875
217	0xbf7665a3	-0.96248835
218	0xbec94626	-0.39311332
219	0x3e5470f3	0.20746212
220	0x3fa37c6c	1.2772346
221	0x3f0bb7c9	0.5457731
222	0x3e1c86a0	0.1528573
223	0x3cec6a4a	0.028859276
224	0xbec98fb0	-0.39367437
225	0xbf560698	-0.8360381
226	0x3e97fb75	0.29684034
227	0xbea25ffb	-0.31713852
228	0x3f28f11c	0.65992904
229	0xbd8c90e2	-0.06863572
230	0xbe8e02a8	-0.27736402
231	0x3ebe7dcf	0.3720536
232	0xbdf4805d	-0.11938546
233	0x3e5250bb	0.20538609
234	0xbed580c7	-0.41699812
235	0x3dc52135	0.09625474
236	0x3ef2d5a1	0.4742861
237	0x3ee290e7	0.44251177
238	0xbea81153	-0.32825717
239	0x3e6ecf07	0.23321162
240	0x3e9a93a9	0.3019078
241	0x3faac55d	1.334148
242	0x3e4bff99	0.19921722
243	0xbd00ca11	-0.031442706
244	0xbf02e288	-0.5112691
245	0x3eaecb31	0.34139398
246	0xbf39fc67	-0.7265076
247	0x3d5fd9a0	0.054650903
248	0x3ed18202	0.409195
249	0xbf06ec30	-0.52704144
250	0xbef4ce47	-0.47813627
251	0xbe144795	-0.14480431
252	0xbdba65bb	-0.09101435
253	0x3f43eb11	0.7653056
254	0x3ebd38fc	0.36957538
255	0xbf3da844	-0.7408488

actor_layer.0.bias f4 [256]
0	0x3e270b9c	0.16313022
1	0xbdfd7c8a	-0.123772696
2	0x3e93b819	0.28851393
3	0x3ef6a2c0	0.48171043
4	0xbdd9a884	-0.10627845
5	0x3ea5f93d	0.32416716
6	0x3cee0f4a	0.029060025
7	0xbe8a6bc0	-0.27035332
8	0xbe3386b7	-0.17531858
9	0xbf05b5d1	-0.52230555
10	0xbf84dbc6	-1.037957
11	0xbf25bb7a	-0.6473919
12	0xbc0998bb	-0.00839823
13	0xbf2b557b	-0.6692731
14	0x3da01aa5	0.07817582
15	0x3edc7d6c	0.4306444
16	0x3ec2a829	0.3801892
17	0x3e092132	0.1339157
18	0x3eddc3f9	0.43313578
19	0xbe8bf371	-0.2733417
20	0xbee75b84	-0.45187008
21	0xbed15be6	-0.40890425
22	0xbe7487bb	-0.23879902
23	0x3e58807c	0.21142763
24	0xbe8be607	-0.27323934
25	0xbe0df584	-0.13863188
26	0xbe99ba40	-0.3002491
27	0xbefb0b7f	-0.49032208
28	0xbeb694eb	-0.3566049
29	0xbe624218	-0.22095525
30	0x3dc6ec9e	0.097131
31	0xbd8e01b6	-0.0693392
32	0x3e902d34	0.28159487
33	0x3e9e81da	0.30958444
34	0x3e70081c	0.23440593
35	0xbed8fb27	-0.42379114
36	0xbd921db2	-0.0713457
37	0x3eca1061	0.3946562
38	0xbd7f5580	-0.0623374
39	0xbf331a1a	-0.699617
40	0xbdb7f07a	-0.08981414
41	0xbf336a69	-0.70084244
42	0xbcc06240	-0.02348435
43	0xbf29182b	-0.660525
44	0xbf3d99b0	-0.74062634
45	0xbf7f70a0	-0.9978123
46	0xbeca0ece	-0.3946442
47	0x3dee5236	0.11636774
48	0x3e93bd60	0.2885542
49	0x3eee2d30	0.4651885
50	0xbf3fac3f	-0.748722
51	0xbdcbd5a8	-0.09952861
52	0xbf02eb10	-0.51139927
53	0x3eb93bb0	0.3617835
54	0xbee95881	-0.45575336
55	0x3cfff369	0.031243997
56	0x3e4a5d03	0.19762044
57	0x3e0b3235	0.13593371
58	0xbf4fb0b1	-0.81128985
59	0xbef220ad	-0.47290555
60	0xbcf26fe5	-0.029594371
61	0xbe0d7fc5	-0.13818271
62	0x3ebca5fb	0.36845383
63	0xbe82b822	-0.25531107
64	0xbe029770	-0.12753081
65	0x3c67faf9	0.014158958
66	0xbf546f14	-0.8298199
67	0x3e3553a1	0.17707683
68	0xbe8750fc	-0.26428974
69	0xbf459420	-0.77179146
70	0xbec26d30	-0.37973928
71	0xbef3933c	-0.47573268
72	0xbf0d21d8	-0.55129766
73	0xbdfd8d7d	-0.123805024
74	0xbf006f7b	-0.50170106
75	0xbd9def50	-0.07711661
76	0x3cf5e8b0	0.03001818
77	0xbf4d8921	-0.8028737
78	0x3f143a32	0.579013
79	0xbf21e591	-0.63240916
80	0x3e9f7f50	0.3115182
81	0xbdfecd2e	-0.12441479
82	0x3e322c16	0.1739963
83	0xbe07bb67	-0.13255082
84	0xbc773bbc	-0.015089925
85	0x3e86f55e	0.26359075
86	0x3e9a9561	0.30192092
87	0x3ddb4c5c	0.10707924
88	0xbf220cc3	-0.6330072
89	0x3e3e7143	0.18597893
90	0x3e4314ac	0.19050854
91	0x3dd9c9e7	0.10634213
92	0xbf5deb22	-0.8668691
93	0xbf404837	-0.7511019
94	0xbf5ba069	-0.8579164
95	0xbe92afbc	-0.286497
96	0xbea13e6d	-0.3149294
97	0xbf1a6b49	-0.60319954
98	0xbf229be0	-0.63519096
99	0x3e6e63f9	0.23280324
100	0x3e6f3d19	0.2336315
101	0xbe28dfa4	-0.16491562
102	0x3ebf40cb	0.3735412
103	0xbe55bb2f	-0.20872186
104	0xbefdb1ca	-0.49549705
105	0xbed03842	-0.4066792
106	0xbe76fdfb	-0.24120323
107	0xbd0672f3	-0.032824468
108	0xbec35b31	-0.3815551
109	0xbf40b3b9	-0.75274235
110	0xbe66cf80	-0.22540092
111	0x3e968ee2	0.29405886
112	0x3e31d7a0	0.1736741
113	0xbe36205f	-0.17785786
114	0x3c768fa6	0.015048897
115	0x3f04d78f	0.51891416
116	0xbd9e129d	-0.07718394
117	0x3f0ae468	0.5425477
118	0xbf4234d2	-0.7586185
119	0xbf390891	-0.72278696
120	0xbdb0041c	-0.08594534
121	0xbd26e0f1	-0.040741865
122	0x3e880aaa	0.26570636
123	0xbf5b2c94	-0.85614896
124	0xbe2fd917	-0.17172657
125	0xbecc3071	-0.39880708
126	0xbf2996de	-0.6624583
127	0xbdb7261a	-0.08942814
128	0x3ed3e958	0.41388965
129	0xbddda0f3	-0.10821714
130	0x3e7b0efe	0.24517438
131	0xbc832c29	-0.016012268
132	0x3e8a7d37	0.27048656
133	0xbf2d9b73	-0.6781532
134	0xbd93f951	-0.07225288
135	0xbeb069b8	-0.34455657
136	0xbdc5b870	-0.09654319
137	0x3eb82c13	0.35971126
138	0xbf41e921	-0.7574635
139	0x3ef2c46a	0.47415477
140	0xbe70535f	-0.23469304
141	0xbf3386c9	-0.7012754
142	0xbf341940	-0.7035103
143	0xbcf92c44	-0.030416615
144	0x3e1d425e	0.15357348
145	0xbe84bc1b	-0.25924763
146	0xbf462184	-0.7739489
147	0xbe9ddd71	-0.3083301
148	0x3e58988b	0.2115194
149	0xbda308ee	-0.079606876
150	0xbe79c9a6	-0.24393329
151	0x3e54c263	0.20777278
152	0x3ea8a54d	0.32938614
153	0x3d5cfd3e	0.053952448
154	0xbd481565	-0.04884853
155	0xbed71e6a	-0.42015392
156	0xbd1c0b3a	-0.038096644
157	0xbec18290	-0.37794924
158	0x3e9ebe07	0.31004354
159	0xbdfa675d	-0.12226746
160	0x3e24ba97	0.16086803
161	0x3e4c4ce0	0.199512
162	0x3f24ae84	0.6432879
163	0xbeb0deb8	-0.3454492
164	0xbf6a11b5	-0.9143327
165	0xbe720100	-0.23633194
166	0x3d44e305	0.048068065
167	0xbe57319d	-0.2101502
168	0x3ece4b46	0.40291804
169	0x3e865c2b	0.26242194
170	0xbe3bc7e5	-0.18337972
171	0xbf580f89	-0.84398705
172	0x3e2a6cff	0.16643141
173	0x3e78eec7	0.24309836
174	0xbe1705b6	-0.14748272
175	0x3da68b30	0.08132017
176	0x3df35c6a	0.11882861
177	0x3ea1e5da	0.31620675
178	0x3dfd78d9	0.123765655
179	0x3e8eab89	0.27865246
180	0x3e651846	0.22372541
181	0xbf7090b7	-0.9397082
182	0x3d77926a	0.060442366
183	0x3d9dec20	0.07711053
184	0xbf48023d	-0.78128415
185	0xbe34ecae	-0.17668411
186	0x3f209ed7	0.6274237
187	0xbda61cdb	-0.081109725
188	0x3e8e9523	0.27848157
189	0x3d33909c	0.043839082
190	0x3de0ecfe	0.10982703
191	0xbe759800	-0.23983765
192	0xbdc8bc9b	-0.09801599
193	0xbe291bdf	-0.16514538
194	0xbd920b14	-0.07131019
195	0x3e1b60f7	0.15173708
196	0x3ef01d04	0.46897137
197	0xbead0208	-0.33790612
198	0x3e39950f	0.18123268
199	0x3e64c19e	0.22339484
200	0xbf04eb60	-0.51921654
201	0xbd813e38	-0.063106954
202	0xbf4123bc	-0.7544515
203	0xbf6734cf	-0.90314955
204	0xbc6ece3d	-0.014575538
205	0x3e86c044	0.26318562
206	0xbdcaa764	-0.098952085
207	0x3e1f2adf	0.15543698
208	0xbee745ab	-0.4517034
209	0xbe2a0fad	-0.16607542
210	0x3eb5a270	0.35475492
211	0xbe88c272	-0.2671085
212	0x3df8c174	0.12146273
213	0xbd771b3e	-0.060328715
214	0x3eea8804	0.45806897
215	0xbe993857	-0.29925796
216	0x3ce58f02	0.028022293
217	0xbd28f8f5	-0.04125305
218	0xbf6da40d	-0.92828447
219	0xbdeb9501	-0.115030296
220	0xbed4cb17	-0.41561195
221	0x3e9aa82b	0.30206427
222	0xbe4ed84c	-0.20199698
223	0xbe069b87	-0.13145266
224	0x3ea66369	0.3249772
225	0xbf388062	-0.72070897
226	0x3e8df448	0.27725434
227	0xbe7c5bf2	-0.2464445
228	0xbe35c28a	-0.17749992
229	0xbeb614bc	-0.35562694
230	0xbd79465c	-0.060858116
231	0xbf13b052	-0.5769092
232	0xbe254016	-0.16137728
233	0xbeb01107	-0.3438799
234	0x3e784e00	0.24248505
235	0xbf42175d	-0.758169
236	0xbf79a685	-0.97519714
237	0xbf0f9372	-0.5608436
238	0x3f07bb84	0.530205
239	0xbf47e729	-0.780871
240	0xbdf4b21c	-0.11948034
241	0xbeb2fe18	-0.34959483
242	0x3d7ce7e6	0.061744593
243	0xbeaf932c	-0.3429197
244	0x3e999dc1	0.3000317
245	0x3f1b5474	0.6067574
246	0x3c42a85e	0.011880962
247	0xbe1805e2	-0.14845994
248	0x3e5d3d0e	0.21605322
249	0xbf16681f	-0.58752626
250	0xbdbe8dec	-0.09304413
251	0x3df6f008	0.12057501
252	0xbe91c3b4	-0.28469622
253	0x3de7a14f	0.11310064
254	0xbf20ec3c	-0.62860465
255	0x3e19c712	0.15017346

actor_layer.2.weight f4 [256, 256]
0	0x3d4c79bc	0.049920782
1	0xbd2219cc	-0.039575383
2	0xbd818e47	-0.063259654
3	0xbb585fd8	-0.0033016112
4	0x3d286d91	0.041120116
5	0x3c834ba4	0.01602728
6	0xbd111577	-0.03542086
7	0xbcb73adc	-0.022366934
8	0x3d095869	0.03353158
9	0x3ba39156	0.0049916906
10	0x3cb1ac25	0.02168853
11	0x3d392898	0.04520473
12	0x3c1a4ec6	0.009418195
13	0x3c8ccb3c	0.017186753
14	0xbd376fdb	-0.044784408
15	0xbd3553dc	-0.044269428
16	0xbcfc1ef6	-0.030776482
17	0xbd4dbdbc	-0.050229773
18	0xbd5afe11	-0.053464953
19	0x3cf80f95	0.030280868
20	0xbb12cae5	-0.0022398767
21	0x3ba08403	0.0048985495
22	0xbd77da9a	-0.06051121
23	0xbcdacaef	-0.026708094
24	0xbd978866	-0.07399063
25	0xbcde4f22	-0.027137343
26	0x3d428cc3	0.047497522
27	0x3d0a21be	0.033723585
28	0xbca552c9	-0.020181077
29	0xbd27ce64	-0.040968314
30	0x3cb241c0	0.021759868
31	0xbd6b4101	-0.05743504
32	0xbd92c8d7	-0.071672134
33	0xbcfa01d2	-0.030518446
34	0xbbf5b6ad	-0.0074985833
35	0x3d00dc07	0.031459834
36	0x3d7cbb00	0.061701775
37	0xbbe26e39	-0.006910112
38	0xbb4316f6	-0.0029768324
39	0x3d4c729c	0.049913988
40	0xbd6c4541	-0.057683233
41	0xbd167cda	-0.03674016
42	0x3d3c157d	0.04591893
43	0x3d6b6950	0.05747348
44	0x3cbbf273	0.022942757
45	0xbccadd27	-0.024763657
46	0x3d13d80a	0.036094703
47	0xbd6ee34e	-0.058322243
48	0xbd7b6f82	-0.06138564
49	0x3d558a8d	0.052134085
50	0xbc995538	-0.018717393
51	0x3c3ec7ff	0.0116443625
52	0xbd2f4821	-0.042793397
53	0x3d0064be	0.031346075
54	0xbd261b6c	-0.040553495
55	0x3d293d17	0.041318025
56	0x3aa09957	0.001225273
57	0x3d7b83f6	0.061405145
58	0x3d558166	0.052125357
59	0x3d3e81e6	0.0465106
60	0x3d1eac4f	0.038738545
61	0xbd7d916e	-0.06190627
62	0xbd8bb21c	-0.06821081
63	0x3d27a70f	0.040930804
64	0xbcf5dc84	-0.030012377
65	0xbbdb31a1	-0.006689266
66	0x3b9d0d80	0.004792869
67	0x3d4acf99	0.049514387
68	0xbd6d7aaa	-0.05797831
69	0xbb8f1ef0	-0.0043677017
70	0x3d341440	0.043964624
71	0x3c82aa50	0.015950352
72	0x3d18d832	0.037315555
73	0x3d1a5b00	0.03768444
74	0x3d1bef64	0.038070098
75	0x3d07ff70	0.03320259
76	0xbd810069	-0.06298906
77	0x3a1ad480	0.0005906299
78	0xbd4fe7d4	-0.050758198
79	0xbd7949ba	-0.060861327
80	0x3c4a2559	0.012338006
81	0xbd1db014	-0.038498
82	0x3d5a6fcf	0.053329285
83	0x3d79e146	0.061005853
84	0x3cfcbcd7	0.030851765
85	0x3d150443	0.036381017
86	0xbc90bf4d	-0.017669344
87	0x3c8b3d73	0.016997075
88	0xbd236d48	-0.03989914
89	0x3bd30663	0.0064399703
90	0x3c388aa3	0.011263522
91	0xbbc9ca64	-0.00615816
92	0x3d08c967	0.033395197
93	0xbd45248e	-0.048130564
94	0x3bcbc4f0	0.006218545
95	0xbb9a26f0	-0.0047043487
96	0x3c5efa7a	0.013609523
97	0x3c0805f8	0.008302204
98	0x3d6562ca	0.056002416
99	0xbd6b5c91	-0.057461325
100	0xbd4dc608	-0.050237685
101	0x3d06c0bf	0.03289866
102	0x3c0a1f85	0.008430366
103	0x3cc941a8	0.02456744
104	0x3bb427b0	0.005497895
105	0xbd51946a	-0.05116693
106	0xbc8ac514	-0.016939677
107	0xbd435192	-0.047685213
108	0xbcb44d3c	-0.022009484
109	0x3d56bf2c	0.05242841
110	0x3c8a0520	0.016848147
111	0x3c913685	0.017726192
112	0xbd675ce6	-0.05648508
113	0x3d55bc2c	0.052181408
114	0x3ce4fac9	0.027951615
115	0x3a99bf74	0.0011730031
116	0x3d399362	0.04530657
117	0xbccbd260	-0.024880588
118	0x3d13cfa1	0.036086682
119	0xbbdf60a8	-0.0068169422
120	0xbd137e1e	-0.036008947
121	0x3b9fbb42	0.004874618
122	0xbce26171	-0.027634354
123	0xbcbd575b	-0.023112943
124	0xbd73a674	-0.059484914
125	0x3d1f3537	0.03886911
126	0xbcb69b08	-0.022290722
127	0xbd442986	-0.047891162
128	0xbd2408c1	-0.04004741
129	0x3c9ef484	0.019403704
130	0xbd306d2c	-0.043072864
131	0x3c39b27a	0.011334056
132	0x3ca884b0	0.020571083
133	0xbd60d9b4	-0.054895118
134	0x3d1364b5	0.035984714
135	0xba68e900	-0.00088848174
136	0xbd04f6dd	-0.03246199
137	0x3d2b3d5e	0.04180657
138	0xbca47c08	-0.020078674
139	0xbcd991dc	-0.026558809
140	0x3d07304b	0.03300504
141	0x3ce252bc	0.027627341
142	0xbd1f560e	-0.038900428
143	0xbd089fc2	-0.033355482
144	0xbd0391cc	-0.032121465
145	0x3d301c98	0.04299602
146	0xba989980	-0.0011642426
147	0x3c66e198	0.014091872
148	0xbd594fae	-0.053054504
149	0x3b7f48de	0.0038953344
150	0xbd05e056	-0.032684647
151	0xbd4fdada	-0.050745822
152	0x3c17c955	0.00926431
153	0x3d1e750d	0.038685847
154	0xbd6639e8	-0.056207567
155	0xbd5cfe9a	-0.053953744
156	0x3bcde5c0	0.006283492
157	0x3b1d1900	0.00239712
158	0xbbc40207	-0.005981687
159	0x3bf04f40	0.007333666
160	0x3c3c40f8	0.011490099
161	0x3aff9aa3	0.0019501041
162	0x3cd05995	0.025433341
163	0xbd36d939	-0.044640753
164	0x3bb364e0	0.0054746717
165	0xbc460d68	-0.012088157
166	0xbd290774	-0.041266873
167	0xbd06a60d	-0.032873202
168	0xbd64edcb	-0.05589084
169	0xbd5c56c0	-0.05379367
170	0xbc34fe90	-0.011047021
171	0xbcbd0840	-0.023075223
172	0x3d16eb30	0.036845386
173	0x3cfbb2a7	0.030724837
174	0x398b9862	0.0002662568
175	0x3c163799	0.009168529
176	0xbd2e0307	-0.042483356
177	0xbcfecfc9	-0.031104939
178	0xbced8cfc	-0.02899789
179	0x3d12abdd	0.035808433
180	0xbbfe7cf3	-0.00776636
181	0xbd539954	-0.051659897
182	0x3d4bdda6	0.049771927
183	0x3c27e8e0	0.010248393
184	0xbd832469	-0.06403429
185	0xbc03f721	-0.008054526
186	0x3c49cc10	0.012316719
187	0xbd43a9a9	-0.047769222
188	0xbd526d02	-0.05137349
189	0xbd2934e6	-0.041310214
190	0x3c38f0ec	0.011287909
191	0x3d4e40f4	0.050354913
192	0xbc9d7da0	-0.019224942
193	0xbd52db20	-0.051478505
194	0x3d139070	0.03602642
195	0xbd034a8e	-0.032053523
196	0xbcd94e59	-0.026526617
197	0x3bc21634	0.005923057
198	0xbd4e70ae	-0.05040043
199	0xbb4dbb36	-0.0031392104
200	0xbd1e9238	-0.038713664
201	0x3d4d60cf	0.050141152
202	0x3c6e8a48	0.014559336
203	0x3d39b202	0.045335777
204	0x3d3e63e0	0.046481967
205	0x3caec9d0	0.021336466
206	0xbd8762d9	-0.066106506
207	0x3d082466	0.033237837
208	0x3d1c8fe0	0.038223147
209	0x3c1ba675	0.009500136
210	0xbd8f1048	-0.06985527
211	0xbd76f978	-0.060296506
212	0xbd8082bf	-0.06274938
213	0x3ce67489	0.02813174
214	0x3cc85390	0.024453908
215	0xbd4823b0	-0.04886216
216	0x3d0cd9b9	0.034387324
217	0x3d4900c7	0.049073007
218	0xbd65a5aa	-0.056066193
219	0xbd33f449	-0.04393414
220	0x3cbac1c0	0.022797465
221	0xbd1647d5	-0.036689598
222	0xbd82c314	-0.063848644
223	0xbbc85f44	-0.006114872
224	0xbd386a6c	-0.045023367
225	0x3d229056	0.03968843
226	0x3d13e393	0.036105704
227	0x3ba900fb	0.0051575876
228	0x3c552908	0.013010271
229	0x3d1ffff0	0.03906244
230	0xbc43ff1c	-0.011962678
231	0x3d55df3c	0.052214846
232	0xbcd07684	-0.025447138
233	0xbb08ed40	-0.0020893365
234	0xbd25c5df	-0.040471908
235	0xbcbf4ff0	-0.023353547
236	0x3d7ee696	0.062231623
237	0x3ce2cca0	0.027685463
238	0xbd831df1	-0.06402195
239	0xbbc3b270	-0.005972199
240	0xbd1b8f00	-0.037978172
241	0x3c9bf344	0.019036897
242	0xbab04fc0	-0.0013451502
243	0x3b17af20	0.0023145154
244	0x3b8cbf98	0.0042953007
245	0x3cc6c75a	0.02426498
246	0xbd7e8d70	-0.062146604
247	0xbc1cfe08	-0.00958205
248	0xbce9904b	-0.028511187
249	0xbb3bec60	-0.0028674826
250	0x3d086107	0.033295657
251	0x3cd6745c	0.026178531
252	0xbc24d800	-0.010061264
253	0x3d4c8dc0	0.04993987
254	0x3b29b200	0.002589345
255	0x3bde3d58	0.006782215

actor_layer.2.bias f4 [256]
0	0xbd84df57	-0.06487911
1	0xbd34704f	-0.04405242
2	0x394303d8	0.00018598081
3	0x3e0c551c	0.13704342
4	0xbd81d839	-0.06340069
5	0xbd51f9de	-0.051263683
6	0xbd4f5e34	-0.05062695
7	0xbd111653	-0.03542168
8	0x3d2706cf	0.040777978
9	0xbd8cad2b	-0.06868967
10	0xbd4b2e58	-0.049604744
11	0x3d41ce0c	0.047315642
12	0x3d50d9e1	0.050989036
13	0x3d2eb8fc	0.042656884
14	0xbd69b76d	-0.057059694
15	0xbb2e9a6e	-0.002664234
16	0xbd81ca73	-0.06337442
17	0xbdc8df96	-0.09808271
18	0x3c8f8cc9	0.017523186
19	0xbda6b453	-0.08139863
20	0xbb95af52	-0.004568019
21	0xbc1a211f	-0.009407311
22	0x3bb5259c	0.005528165
23	0x3d366abf	0.044535395
24	0xbcf591ef	-0.029976813
25	0xbd13debc	-0.036101088
26	0x3ce10550	0.027468354
27	0x3d113629	0.03545204
28	0x3b6426fa	0.003481327
29	0xbb914b94	-0.0044340584
30	0xbd945b60	-0.07243991
31	0x3cdff682	0.027339224
32	0xbd74527d	-0.05964898
33	0xbd8481ba	-0.06470056
34	0xbbd92f98	-0.006627988
35	0xbc1a7cb3	-0.009429145
36	0x3c0686db	0.008210863
37	0xbd402ab3	-0.04691572
38	0xbd63c77f	-0.055610176
39	0xbd472006	-0.048614524
40	0xbd01e246	-0.03170993
41	0xbd63f300	-0.055651665
42	0x3d0b350f	0.033986147
43	0xbd95a1ca	-0.073062494
44	0x3d3ab8b9	0.04558632
45	0xbdaf9d2d	-0.08574901
46	0xbcab575d	-0.020915681
47	0xbd841e36	-0.06451075
48	0xbc6194aa	-0.013768354
49	0x3ba43287	0.005010906
50	0x3cc161aa	0.02360614
51	0x3c634e8c	0.0138737075
52	0x3cc3e4f7	0.02391289
53	0xbd211a1c	-0.03933154
54	0x3c998b39	0.018743144
55	0xbc84aa33	-0.016194439
56	0xbd74a34a	-0.059726037
57	0x3bd5db58	0.006526392
58	0x3d438522	0.047734387
59	0x3c6cfdfa	0.01446485
60	0xbd400543	-0.046880018
61	0x3d29f4f8	0.041493386
62	0xbd061dce	-0.032743268
63	0xbd801416	-0.06253831
64	0xbd6968d9	-0.056984756
65	0x3d1be2b4	0.038057998
66	0xbcd15de6	-0.02555747
67	0x3c0e6a9e	0.008692412
68	0xbd6b1e28	-0.057401806
69	0xbd18f3ef	-0.03734201
70	0xbd594994	-0.053048685
71	0x3d0ab388	0.03386262
72	0x3cc2b5f7	0.023768408
73	0xbc92d887	-0.017925514
74	0x39a5b59c	0.00031606562
75	0xbd776849	-0.06040219
76	0xbd29624d	-0.041353513
77	0x3da613c4	0.08109239
78	0x3bcf9dca	0.0063359486
79	0x39a1bfea	0.000308513
80	0xbc30e3dc	-0.010796513
81	0xbd61ba5c	-0.055109367
82	0x3d046554	0.032323197
83	0x3cc547bb	0.024082055
84	0xbd6c1f59	-0.057647083
85	0xbc98b269	-0.01863976
86	0x3d50f9ed	0.051019598
87	0xbccf9e2a	-0.025343973
88	0xbbd0d6ef	-0.0063732783
89	0xbd0898dc	-0.033348903
90	0xbd20c7ad	-0.039252926
91	0x39e45edb	0.00043558222
92	0xbd8d8bbe	-0.06911419
93	0xbbbf8c59	-0.005845588
94	0xbd212014	-0.039337233
95	0xbd16c2c3	-0.036806833
96	0xbc1f1ab3	-0.009710955
97	0x3d162bb1	0.03666276
98	0xbd8aa48f	-0.06769668
99	0x3d439066	0.04774513
100	0xbd1fb1fd	-0.038988102
101	0x3c95439f	0.01822072
102	0xbacab5a5	-0.0015465511
103	0xbc4f7b76	-0.012663713
104	0x3c0b0cbd	0.008486924
105	0xbd961fd7	-0.07330292
106	0xbd894892	-0.06703295
107	0xbd08f6d0	-0.033438504
108	0xbd9fc1e4	-0.078006536
109	0x3c3d02c5	0.011536305
110	0x3d0954cb	0.03352813
111	0xbd8b1d20	-0.067926645
112	0xbcd9b49c	-0.02657538
113	0xbd502187	-0.050813224
114	0x3c102f45	0.008800332
115	0x3e8d62f5	0.2761456
116	0x3d102d8b	0.035199683
117	0xbcdc799f	-0.026913462
118	0x3c9e1167	0.019295407
119	0xbd97f5b4	-0.07419911
120	0x3c8bcb3f	0.017064689
121	0xbda7e26f	-0.08197486
122	0xbc80e341	-0.015733363
123	0xbd886dd0	-0.0666157
124	0xbcc4d02d	-0.024025047
125	0xbd1e5398	-0.03865394
126	0xbd5fecde	-0.054669254
127	0xbdb31007	-0.08743291
128	0x3e4870f5	0.1957434
129	0xbd1dab6e	-0.038493566
130	0xbc933d5d	-0.017973596
131	0xbd84a3c5	-0.06476549
132	0x3b8b0212	0.00424219
133	0x3d0a86ff	0.03382015
134	0x3d18128f	0.037127074
135	0xbcf13604	-0.029444702
136	0xbd9af581	-0.075663574
137	0x3e0460a5	0.12927492
138	0x3cb55284	0.022134073
139	0xbc47f72a	-0.012204925
140	0xbd49f8d3	-0.049309563
141	0xbab77ffb	-0.0013999933
142	0x3d13a635	0.03604718
143	0xbb77fa27	-0.0037838311
144	0xbd38c609	-0.045110736
145	0xbda554d5	-0.08072821
146	0x3d01903c	0.031631693
147	0xbcb53ef0	-0.022124738
148	0xbc527d13	-0.012847203
149	0xbd367e57	-0.04455408
150	0x3ae84524	0.0017720801
151	0xbd2be9a3	-0.04197086
152	0x3cab1070	0.020881861
153	0xbd70f940	-0.058831453
154	0x3cda2f8c	0.026634
155	0x3d1699a5	0.03676762
156	0xbd886086	-0.066590354
157	0xbd266c5b	-0.04063068
158	0xbdbc6399	-0.09198684
159	0xbda6fffb	-0.08154293
160	0xbb08daf6	-0.0020882464
161	0x3d2f7006	0.042831443
162	0xbd7f5429	-0.06233612
163	0x3d3823fd	0.044956196
164	0xbda9ded1	-0.08294452
165	0xbde96d07	-0.113977484
166	0xbc92d004	-0.017921455
167	0xbb061d00	-0.0020464063
168	0xbd4575a3	-0.04820789
169	0xbd7c3494	-0.06157358
170	0x3d093dd4	0.03350623
171	0x3db7701a	0.089569286
172	0xbd6935ce	-0.056936078
173	0xbd9cc216	-0.076542065
174	0x3d2377d9	0.039909218
175	0x3b899003	0.0041980757
176	0x3b9b9c37	0.004748847
177	0xbcaed77c	-0.021342985
178	0xbd0afc06	-0.033931755
179	0xbd814ff4	-0.06314078
180	0xbc549371	-0.012974606
181	0xbd106d56	-0.03526052
182	0x3c3ee0bf	0.011650263
183	0x3cbfd581	0.023417236
184	0xbd161824	-0.036644116
185	0xbdd98792	-0.10621561
186	0xbce6f83b	-0.028194537
187	0xbd4d6c5b	-0.050152164
188	0xbc25428c	-0.010086667
189	0xbd2d2c16	-0.04227837
190	0xbbbbca97	-0.0057309377
191	0xbd76892d	-0.060189415
192	0x3cbc9926	0.023022246
193	0xbcb0acbb	-0.02156674
194	0xbc5e4fb7	-0.01356881
195	0xbc95455c	-0.01822155
196	0x3d17a086	0.03701832
197	0xbd614f83	-0.05500747
198	0xbd7cff6d	-0.06176703
199	0x3c4f2f9f	0.012645631
200	0xbcf52b8f	-0.029927997
201	0x3ca40f39	0.02002679
202	0xbd841455	-0.064491905
203	0xbbb41763	-0.005495952
204	0x3cc029e1	0.02345747
205	0xbca586fb	-0.020205965
206	0x3cb05797	0.021526141
207	0xbcceefc7	-0.02526082
208	0xbda01a50	-0.07817519
209	0xbd58ed23	-0.052960526
210	0x3c773e97	0.015090606
211	0x3d0b973b	0.03407977
212	0xbd98390f	-0.07432758
213	0x3c27e262	0.010246845
214	0x3cc8778d	0.024471069
215	0xbcccd188	-0.025002256
216	0x3c347a6a	0.011015514
217	0x37f62952	2.9344726e-05
218	0x3d144898	0.036202043
219	0xbd876369	-0.06610758
220	0x3d866a9a	0.065633014
221	0x3c504e86	0.012714034
222	0xbd8bc49e	-0.06824611
223	0xbbcc203b	-0.006229428
224	0x3bf424ed	0.007450691
225	0x3d3e247a	0.046421506
226	0xbd3ea26d	-0.04654162
227	0xbd08a26c	-0.033358023
228	0xbd3520bd	-0.044220675
229	0xbc7a495e	-0.015276281
230	0xbd8b335b	-0.06796905
231	0x3d60a764	0.054847136
232	0x3c0b83df	0.008515327
233	0xbd4e7aca	-0.05041007
234	0x3c257e81	0.010100962
235	0xbd2129b5	-0.039346416
236	0xbc5b343a	-0.013379151
237	0xbd69db04	-0.057093635
238	0xba46ee7f	-0.0007588639
239	0x3c2c9960	0.010534614
240	0xbd8497d4	-0.064742714
241	0x3c716b48	0.0147350505
242	0xbd847ba3	-0.06468894
243	0x3cbbb441	0.0229131
244	0x3aac51fd	0.0013146993
245	0x3cb81af1	0.022473784
246	0xbc91067c	-0.017703287
247	0xbd268849	-0.040657315
248	0x3d1965d0	0.03745061
249	0xbc77fe40	-0.0151363015
250	0x3b47f75f	0.0030512435
251	0x3d63affa	0.055587746
252	0xbd895a10	-0.06706631
253	0x3c2f38b0	0.010694668
254	0xbd08eb25	-0.033427376
255	0x3cf4047f	0.0297873

actor_layer.4.weight f4 [1, 256]
0	0x3bd6ecff	0.006559014
1	0xbbea91e4	-0.007158505
2	0xbc48cc40	-0.012255728
3	0xbe15f3b5	-0.14643748
4	0x3b711319	0.0036785065
5	0x3c4acd8f	0.012378111
6	0x3cc10eeb	0.023566684
7	0x39f6ce73	0.00047074593
8	0xbbe2a9a0	-0.0069171935
9	0xbc2b4d35	-0.010455419
10	0x3b392e45	0.0028256339
11	0x3bf46bd2	0.0074591422
12	0x3a651701	0.00087390846
13	0x3c0bfec2	0.008544626
14	0xbcdbd1c7	-0.026833428
15	0xbd0c4ebd	-0.03425478
16	0x3b85915d	0.0040761665
17	0x3b70754f	0.0036691015
18	0x3bcd481e	0.0062647006
19	0x3ca1a675	0.019732693
20	0x3b85ff98	0.004089307
21	0x3be873ea	0.007093896
22	0xbbbcdc87	-0.0057635936
23	0xbbe65428	-0.007029075
24	0x3bd4f180	0.0064985156
25	0x3c06e281	0.008232714
26	0xbc31b02e	-0.010845227
27	0x3b71e3bb	0.003690942
28	0x3bd70b0a	0.0065625953
29	0x3c0fa293	0.008766788
30	0x3cc8ebd2	0.02452651
31	0xbbcdf1b4	-0.006284917
32	0xbc11b214	-0.008892555
33	0x3b578584	0.0032885978
34	0x3bc185df	0.0059058513
35	0x3b91a8d9	0.004445177
36	0xbb44805f	-0.0029983742
37	0x3bbad5a3	0.005701737
38	0x3c6b870f	0.014375462
39	0x3b02de52	0.001996894
40	0xbb1a9788	-0.0023588855
41	0xba1f2348	-0.0006070626
42	0xba35abdd	-0.00069302117
43	0x3c50ed37	0.012751869
44	0x3ca84599	0.020541
45	0xbc0b492e	-0.008501334
46	0x3b207056	0.002448102
47	0x3a738f7f	0.0009291097
48	0x3bd72a46	0.0065663187
49	0x3c0c004b	0.008544992
50	0x3be20100	0.006897092
51	0xbc5a56ba	-0.013326341
52	0xbc56bb45	-0.013106172
53	0xbce1c552	-0.02755991
54	0x3b99d187	0.004694167
55	0x3c835b76	0.016034823
56	0x3c0886e3	0.008332941
57	0x3bc18850	0.0059061423
58	0x3be58efa	0.0070055695
59	0x3ce8a0e3	0.02839703
60	0x3bc22a96	0.005925487
61	0x3aff184a	0.0019462195
62	0xbbdd662c	-0.0067565646
63	0x3897f86f	7.2465155e-05
64	0xbb5ac2b7	-0.003338022
65	0x3bf45134	0.007455969
66	0xbbd1a117	-0.0063973772
67	0xbb5f260a	-0.0034049773
68	0xbb8629d7	-0.004094343
69	0x3bc92c90	0.0061393455
70	0x3b9c95c9	0.004778598
71	0x3c0e8e4e	0.00870092
72	0xbccca720	-0.024982035
73	0xbca8c4cf	-0.020601658
74	0xb81bf277	-3.7180693e-05
75	0xba00e03f	-0.0004916228
76	0xba12283e	-0.00055754546
77	0xbd9348fd	-0.07191656
78	0xba4892c6	-0.00076512655
79	0x3c0dda75	0.008658041
80	0xbb5fb9d1	-0.0034137855
81	0x3b9ca454	0.0047803316
82	0xbb9444f9	-0.0045248237
83	0xbbbf2dc9	-0.0058343154
84	0x3c847ddb	0.016173294
85	0x3bf54400	0.007484913
86	0x3b54681b	0.0032410685
87	0x3c289fc1	0.010291995
88	0xba85d58d	-0.0010210738
89	0xbc005dea	-0.007834891
90	0xbef0bcd3	-0.4701906
91	0xbb408eb6	-0.0029381937
92	0x3c09c942	0.0084098
93	0x3c053b2b	0.0081317825
94	0xbc37dda7	-0.01122228
95	0xbbf51b15	-0.007480035
96	0xbcc62c02	-0.024190906
97	0xbb356e90	-0.0027684309
98	0x3c0b83f2	0.008515345
99	0x3bbf8647	0.0058448645
100	0x3b93f302	0.004515053
101	0xbc9cd8de	-0.01914638
102	0x3c0c952d	0.008580488
103	0xbcd8dc28	-0.026472166
104	0xb98fa076	-0.00027394638
105	0x3cd21c3e	0.025648233
106	0x3bdf8dd6	0.006822328
107	0xbcb9ac21	-0.022665085
108	0xbcb93800	-0.02260971
109	0xbc13f435	-0.009030391
110	0x3c0d2599	0.008614921
111	0x3c168e6c	0.009189229
112	0xbb744f9c	-0.0037278896
113	0x3f1189b9	0.56850773
114	0x3bfdfdd6	0.007751207
115	0xbe5a1e61	-0.21300651
116	0x3c8f8fc6	0.017524611
117	0x3c036a52	0.008020954
118	0x3bce00d8	0.0062867217
119	0xbc57929f	-0.013157516
120	0x3b949a23	0.004534976
121	0xbbbfb9e5	-0.005851018
122	0x3cfc775b	0.030818632
123	0x3c41eb7e	0.011835931
124	0xbaaf457b	-0.0013372147
125	0xbb12c005	-0.0022392285
126	0x3cd36d19	0.025808858
127	0xbcbebaa6	-0.02328236
128	0xbf383849	-0.71960884
129	0xbbd15c72	-0.006389194
130	0x3c11d4a1	0.008900792
131	0x3bf53214	0.0074827764
132	0x3be495a9	0.0069758487
133	0x3bc1e0b9	0.0059166816
134	0xbc774feb	-0.0150947375
135	0xbc847719	-0.016170071
136	0x3c51e414	0.012810726
137	0x3ea47639	0.32121447
138	0xbd0687ae	-0.032844238
139	0xbc45efaa	-0.012081066
140	0xbc89c008	-0.0168152
141	0xba0725f5	-0.00051554973
142	0x3c4940a9	0.012283483
143	0x3c8677b5	0.016414503
144	0xbae3ec86	-0.0017389215
145	0xba905a01	-0.0011013151
146	0x3c4415f6	0.0119681265
147	0xbb799bf5	-0.0038087342
148	0x3bb66e96	0.005567382
149	0xbb85da9a	-0.004084897
150	0xbbba7065	-0.005689668
151	0x3a85f22d	0.0010219269
152	0x3befaa22	0.0073139826
153	0x3c04f0f5	0.008114089
154	0xbaf53fb0	-0.0018710997
155	0xbc0e9464	-0.008702371
156	0x3b9176b6	0.0044392003
157	0x3bdcb510	0.0067354515
158	0x3cc78aa7	0.024358107
159	0xbce9721a	-0.02849679
160	0xbc25c891	-0.01011862
161	0x3b2c1072	0.002625492
162	0x3b22fa88	0.0024868567
163	0xbb33099b	-0.0027318958
164	0xbbd5b3e3	-0.0065216883
165	0xbc81232f	-0.015763847
166	0x3c1129a6	0.008860027
167	0x3ac8e123	0.0015325885
168	0x3be4fd8e	0.006988234
169	0x3c075a5b	0.0082612885
170	0x3cec8e31	0.028876396
171	0xbde5b991	-0.112170346
172	0xba708361	-0.00091748504
173	0x3bd41369	0.0064720404
174	0xbc5fc0f7	-0.013656846
175	0x3a7224c0	0.00092370436
176	0xbbb2e1d2	-0.005459049
177	0xbc3973b7	-0.0113190925
178	0xbca4030f	-0.02002099
179	0xbc045c57	-0.008078656
180	0xbc3cf824	-0.011533771
181	0xbc5701da	-0.013123
182	0xbc2f0a91	-0.010683672
183	0xbc17cbc4	-0.00926489
184	0x3bee0a7e	0.0072644344
185	0xbcdad1cc	-0.026711367
186	0x3bdc0fbd	0.0067157433
187	0xbe96d19c	-0.29456794
188	0x3bdd7227	0.006757993
189	0xbb48d278	-0.0030643027
190	0xbc5e860f	-0.013581767
191	0xbb072dbf	-0.0020626632
192	0x3c1fc2db	0.009751047
193	0x3ba57b25	0.0050500804
194	0xbc0259c2	-0.00795597
195	0xbbff7fc0	-0.0077972114
196	0xbbe84924	-0.007088797
197	0x3906b648	0.00012847141
198	0x3d009407	0.03139117
199	0x3be7f1d9	0.007078391
200	0x3bd82d3d	0.0065971897
201	0xbc97f2fd	-0.018548483
202	0x3bdca076	0.0067329956
203	0xbc3a2299	-0.011360788
204	0x3c00463d	0.007829246
205	0x3bb35615	0.0054729083
206	0x3b5bfba0	0.0033566728
207	0xbc2f82c6	-0.010712331
208	0x3be7cd65	0.0070740455
209	0x3be93977	0.007117446
210	0x3cf17cb5	0.02947841
211	0x3bddedf1	0.0067727496
212	0xbc064f06	-0.008197552
213	0x3cc88c21	0.024480881
214	0xbaeaa3d4	-0.0017901608
215	0xbb78f768	-0.0037989262
216	0xbc279e15	-0.010230561
217	0x3baf6c1f	0.005353465
218	0xbc040958	-0.008058868
219	0xbbc23e6b	-0.005927851
220	0x3ed79a37	0.42109844
221	0xbbb8db75	-0.0056413957
222	0x3cbdf980	0.02319026
223	0xbc809392	-0.015695367
224	0xbc84ea1c	-0.016224913
225	0xbbf4af48	-0.007467184
226	0xbcc844a2	-0.02444679
227	0xbbc825d5	-0.0061080256
228	0x3bfc424f	0.0076983343
229	0xbb80c737	-0.0039299983
230	0xba1d8582	-0.0006008969
231	0x3ae0a259	0.0017138227
232	0x3bbeccd0	0.0058227554
233	0xbc2b65bf	-0.01046127
234	0xbb484501	-0.0030558708
235	0xbc43a766	-0.011941766
236	0x3c010357	0.007874331
237	0xbc590bc8	-0.013247438
238	0x3ca5d5d2	0.020243559
239	0x3be3faf1	0.006957405
240	0x3bf0eed3	0.007352689
241	0x3b8d6b9e	0.0043158075
242	0xbb72cb0f	-0.0037047302
243	0x3f0eca49	0.5577741
244	0xbb96cd0b	-0.0046020797
245	0x3bce4646	0.0062949983
246	0x3ca2a6c2	0.019854907
247	0xbcec90e7	-0.028877689
248	0x3bbf0c8f	0.0058303545
249	0xbcba7197	-0.022759242
250	0xbb33dbcd	-0.0027444244
251	0xc0212edd	-2.5184853
252	0x3c0f8a86	0.008761054
253	0x3a020fa4	0.0004961437
254	0x3a12630e	0.00055842183
255	0x3c314ddc	0.010821786
