Reinforcement_Learning/KHW/pendulum_target_actor.pt (torch, 270797 bytes, 5 tensors)

actor_layer.0.weight f4 [256, 3]
000000 a6 ff c1 bd 6c ec c1 bf 18 4d e6 be ef 71 b6 3e
       -0.09472589 -1.5150275 -0.44980693 0.356338
000010 73 8c ca be 1c 2a a2 be 8c 1e 8f be e2 49 79 bf
       -0.3956028 -0.31672752 -0.27952993 -0.9737836
000020 a8 b3 9c bb 4c fb 55 be 2e 5d 9e 3e cc e2 d7 3e
       -0.004782159 -0.20896643 0.30930465 0.4216522
000030 54 50 0f bf 7d 02 03 bf 4d 66 eb bd 52 c5 8a be
       -0.55981946 -0.5117567 -0.11494122 -0.27103668
000040 22 e4 ae bf 75 7b 66 be 58 33 0e bf a1 6a a8 3d
       -1.3663371 -0.22508033 -0.55547094 0.08223463
000050 1e f2 9e be 11 47 24 be d2 c2 7e be e9 8d 78 be
       -0.31044096 -0.16042735 -0.24879006 -0.24272884
000060 e7 eb 80 be cb 4a a8 3f 00 3d ee 3e 9a 10 00 bf
       -0.2517998 1.3147825 0.46530914 -0.5002533
000070 61 30 5f 3d 25 96 18 3b 68 1c 4f 3e 5c 29 76 bf
       0.054489497 0.0023282852 0.2022568 -0.9615686
000080 94 15 bc be 65 df a1 3d 90 ef f5 bd 26 65 c1 be
       -0.36735213 0.07903937 -0.120085835 -0.37772483
000090 87 2c 9c be ac d8 a4 3f 1f 2d 5d 3e 8a 7b e9 3e
       -0.30502722 1.2878623 0.21599244 0.45602065
0000a0 75 4b 93 3e f8 46 cc 3c d6 85 8a be b2 f6 39 bf
       0.28768507 0.024936184 -0.27055234 -0.7264205
0000b0 a4 95 dc 3d 3e 91 c0 be ff 8c d7 3e fd cb 6e be
       0.10770729 -0.3761081 0.4209976 -0.23320003
0000c0 ae b1 40 bf d7 c0 d5 3e 5f 8f e1 3e 0b d6 28 be
       -0.7527112 0.41748688 0.44054696 -0.16487901
0000d0 c9 ce 3d bf 0b 4b 8f 3e 61 4b 3d be 27 eb 18 3e
       -0.74143654 0.2798694 -0.18485786 0.14933454
0000e0 43 9e 8b be 1d 02 04 bf d3 d4 62 bf 76 c4 01 be
       -0.27269182 -0.51565725 -0.88605994 -0.126726
0000f0 0e 50 b6 be a8 76 bd 3f a9 a3 b9 3d df b1 80 3e
       -0.35607952 1.4801836 0.09064419 0.25135705
000100 20 51 32 3f 3b c4 e9 3e 44 a3 04 bf 50 c9 99 3f
       0.69655037 0.45657524 -0.51811624 1.2014561
000110 b1 1d a7 3e 91 3c e6 bd e6 2b 8a 3f 3e b0 4d bd
       0.3263984 -0.11242021 1.0794647 -0.050216906
000120 13 07 49 bf a2 86 43 bf 1b 04 46 be 49 a9 9b be
       -0.7852642 -0.7637731 -0.19337504 -0.30402592
000130 54 81 86 3f 9d 1f ae 3e 5d 4e 0e bf ce c2 62 bf
       1.0508218 0.34008494 -0.5558832 -0.885785
000140 32 b8 01 be 23 27 03 3f 24 80 26 bf 50 58 8d bd
       -0.12667921 0.5123159 -0.6503928 -0.0690161
000150 d7 31 62 3e fb 06 3c 3f e0 5d fe 3e 54 b0 4e bf
       0.22089325 0.7344815 0.49680996 -0.80737805
000160 d5 6a 0f 3e 61 bc c6 be e8 d7 97 be 12 78 4d bf
       0.14005597 -0.38815597 -0.2965691 -0.8026134
000170 da 45 f7 3d b0 6a 93 be 24 9b ac 3f e6 a5 6a 3e
       0.1207387 -0.28792334 1.3484845 0.22914848
000180 0a 9c c8 3e cf 4b fd be af 7d bf 3d fb 89 51 bf
       0.39181548 -0.494719 0.09350144 -0.81851166
000190 54 cb a3 3e 13 33 d5 3e 26 46 00 bf d9 4e 5c bf
       0.31991065 0.4164053 -0.5010704 -0.8605781
0001a0 a9 26 1e 3e 66 85 cc 3e fc cc 0a 3e 47 5d a9 3e
       0.15444435 0.39945525 0.13554758 0.33078977
0001b0 fa 37 86 3f f6 4c 45 be b2 06 61 be 51 87 62 bb
       1.0485833 -0.1926764 -0.2197521 -0.0034565518
0001c0 1d 74 15 bf 91 d4 cc 3e 88 72 f1 3d 3f e9 97 bf
       -0.583803 0.40005925 0.11789423 -1.1868056
0001d0 1c 74 b0 be 82 a9 3a 3f 46 c1 7c bf d6 4a 57 be
       -0.34463584 0.729149 -0.9873241 -0.21024641
0001e0 7c f3 3a bf 62 7a 2c 3f ac 55 98 3e 09 b4 26 3f
       -0.7302778 0.6737424 0.29752862 0.6511846
0001f0 a0 7f 8f 3e 1e ed 05 3f 89 ad 8d be de 88 1e bf
       0.28027058 0.5231494 -0.2767146 -0.6192759
000200 38 00 bd 3d 77 ba fe 3e dc 40 46 be e9 5b d2 be
       0.09228557 0.49751636 -0.1936068 -0.41085747
000210 d1 5a b2 3e 0b 41 20 be f6 3e 8a 3e 9b 50 ff bd
       0.34834912 -0.15649812 0.2700116 -0.12466546
000220 07 a9 a5 3c b9 e7 de 3d 6c cc 36 be 07 62 50 3e
       0.0202222 0.10884041 -0.17851418 0.20349894
000230 15 0a 13 3c 53 ca 17 bd 45 49 cc bf 4e 66 de be
       0.008974572 -0.037058186 -1.595986 -0.43437427
000240 c3 a7 16 3f 77 63 48 bf 5d 2d f8 bd 52 16 cc be
       0.58849734 -0.7827677 -0.12118027 -0.3986078
000250 13 4d ce bf 1e 2b a3 bd ca ec ff 3e 5b f5 0d bf
       -1.6117271 -0.07967208 0.49985343 -0.5545251
000260 89 94 95 3e d0 92 26 bf aa 86 22 bf f1 57 1f be
       0.29214886 -0.6506777 -0.6348673 -0.1556089
000270 fb 13 a9 3d 8f 4c 86 bf 5d d1 d4 3c be 34 30 bf
       0.08255764 -1.0492114 0.025978738 -0.6883048
000280 35 14 db 3e e8 ca 4e be 9b 75 d7 3e 3a 46 1c 3f
       0.42788854 -0.2019459 0.42081913 0.6104466
000290 37 b5 e8 3e 2e ea 87 3d b2 f4 a7 3f cf 51 d4 3e
       0.45450756 0.06636463 1.312155 0.41468665
0002a0 6d ab 1d be cc 3a 95 bf 00 4d b9 be f9 5d 5b 3f
       -0.15397425 -1.1658568 -0.3619156 0.85690266
0002b0 80 b8 b2 be a7 a5 4b be 47 9d 6a 3f e3 04 09 bf
       -0.34906387 -0.1988741 0.91646236 -0.5352308
0002c0 73 43 e6 be 23 1d a2 3f 45 b4 6a 3e 39 b0 15 bf
       -0.44973335 1.2665142 0.2292033 -0.5847202
0002d0 dd cc f0 be 00 2c 30 3d 59 11 80 be 69 54 57 3e
       -0.47031298 0.04301071 -0.25013235 0.21028294
0002e0 ce 0b de bf f4 c3 38 be 3e 85 a8 be eb a6 c1 bf
       -1.7347353 -0.180435 -0.32914156 -1.5129064
0002f0 b7 1c b1 bc 92 f1 12 bf b0 f0 f6 be 60 7f 87 be
       -0.021620138 -0.5739986 -0.48230505 -0.26464367
000300 6d 8e b9 be a1 ec 84 3f 63 80 a1 3e b8 78 27 bf
       -0.36241475 1.0384713 0.31543264 -0.6541858
000310 66 f7 ef bd f6 28 94 be 81 4a 03 3f 16 67 98 be
       -0.117171094 -0.289375 0.5128556 -0.29766148
000320 19 a0 94 3e 4f ac 0a be 01 7a 82 bf ed 5a 08 be
       0.29028395 -0.13542293 -1.0193483 -0.13315935
000330 d4 80 06 bf d9 a5 24 be a0 7c eb 3e aa 8a e7 3e
       -0.52540326 -0.16078891 0.4599352 0.4522298
000340 3b 59 7c 3e d8 2a 4c 3d 35 fe 81 3e b3 16 6f 3f
       0.24643414 0.049845546 0.25389257 0.9339401
000350 c7 66 10 3f 7b 9f 10 3f a6 26 44 3e 55 f2 6f 3e
       0.56406826 0.5649335 0.19155368 0.23432286
000360 8e 80 26 3f 9b e0 76 bf 6e b4 ca be 15 6e 5d 3e
       0.6503991 -0.9643647 -0.39590782 0.21624024
000370 3c 5d a3 3f 4f 09 0b 3f ae fa 1b 3e 03 10 f5 3c
       1.2762828 0.5431108 0.15232345 0.029914862
000380 57 29 ca be 4f 27 57 bf 58 7c 94 3e 71 9d 9e be
       -0.39484665 -0.84044355 0.29001117 -0.30979493
000390 80 64 2a 3f af 16 8e bd b3 13 90 be 6d 75 c3 3e
       0.665596 -0.0693792 -0.2814003 0.38175526
0003a0 43 a5 ef bd 95 1e 52 3e 02 3b d2 be 5f 01 b1 3d
       -0.11701443 0.20519479 -0.41060644 0.0864284
0003b0 fb 81 f4 3e bf 95 e1 3e 66 31 a6 be 5a da 6d 3e
       0.47755417 0.4405956 -0.32459563 0.23227826
0003c0 1e d7 a0 3e ea ec a9 3f 01 71 50 3e 2d 75 ca bc
       0.3141412 1.3275425 0.20355608 -0.024714077
0003d0 8b 53 05 bf 56 e8 b1 3e b3 97 38 bf d1 3b 31 3d
       -0.520806 0.3474757 -0.72106475 0.043269936
0003e0 4f 41 d3 3e fa e4 07 bf 94 c6 f2 be d3 c7 0e be
       0.41260764 -0.53083766 -0.47417128 -0.13943414
0003f0 da 26 b3 bd 41 4f 43 3f 08 7b bc 3e 51 89 3c bf
       -0.08747645 0.76292807 0.36812615 -0.7364703

actor_layer.0.bias f4 [256]
000000 85 eb 1c 3e 00 b2 00 be a4 70 8f 3e c4 49 f8 3e
       0.15324219 -0.12567902 0.28015625 0.4849378
000010 f0 1e d9 bd 54 e6 a0 3e f0 05 05 3d ec 36 8b be
       -0.10601604 0.31425726 0.032476366 -0.2719034
000020 7b 9b 2e be 55 b5 05 bf 13 f1 83 bf 9e da 24 bf
       -0.17051499 -0.52229816 -1.0307945 -0.64396083
000030 ad d3 ed bb 5f 55 2b bf fc 79 a0 3d 46 09 e0 3e
       -0.0072578997 -0.6692714 0.07835767 0.43757075
000040 f7 06 c4 3e 03 06 0b 3e ee 1d dd 3e 86 5c 8a be
       0.38286564 0.13576512 0.43186897 -0.27023715
000050 d8 71 e1 be 72 db d0 be be 6b 71 be 0e f3 63 3e
       -0.44032168 -0.40792423 -0.23576257 0.22260687
000060 14 04 8d be f6 4a 0c be e9 a5 98 be ac f2 fe be
       -0.27542174 -0.1370047 -0.2981408 -0.4979452
000070 03 57 b6 be 43 63 5e be 40 16 ca 3d 74 77 86 bd
       -0.3561326 -0.21717553 0.09867525 -0.065657526
000080 ae 94 94 3e 2d 5f 9f 3e 79 df 72 3e 15 c8 d8 be
       0.29019684 0.311273 0.2371806 -0.4234015
000090 46 a4 89 bd 09 1d ca 3e 3e 5f 92 bd 72 70 35 bf
       -0.06720786 0.39475277 -0.07147072 -0.708747
0000a0 7e f4 b4 bd 61 9b 34 bf e0 d7 af bc 88 e2 28 bf
       -0.08835696 -0.7054959 -0.021465242 -0.6597066
0000b0 3c d2 3c bf a4 70 7f bf ce 0e ca be 4b 9e da 3d
       -0.7375829 -0.9978125 -0.3946442 0.10674723
0000c0 0d 17 94 3e 94 bb e9 3e 5f ce 3f bf 03 0b d3 bd
       0.28923836 0.45650923 -0.7492427 -0.10304835
0000d0 ab 6e 04 bf b3 f9 b9 3e 9f 16 ea be de ce 1e 3d
       -0.51731366 0.36323318 -0.45720384 0.038771503
0000e0 67 be 3f 3e 98 d0 0b 3e f6 26 52 bf 45 bc f0 be
       0.18724976 0.13653791 -0.820907 -0.47018638
0000f0 50 30 b6 bc 33 34 17 be 8e 14 b9 3e a6 32 83 be
       -0.022239834 -0.14766006 0.36148494 -0.2562458
000100 96 d0 00 be 20 17 97 3c 17 8d 53 bf b6 fd 2b 3e
       -0.12579569 0.018443644 -0.8263716 0.16796002
000110 06 c6 87 be 21 94 45 bf af 75 c2 be 19 ec ee be
       -0.26518267 -0.7717915 -0.3798041 -0.46664503
000120 4e 6c 0f bf 5b d3 ed bd 9e 88 ff be 59 6e 99 bd
       -0.56024635 -0.116125785 -0.49908918 -0.0749175
000130 3f 7c 22 3d 6e 12 4c bf 14 89 14 3f 5b 0d 22 bf
       0.03966927 -0.7971562 0.58021665 -0.6330163
000140 c2 aa a3 3e bc d2 fe bd 51 3e 31 3e 4d d9 0b be
       0.31966215 -0.12442538 0.17308928 -0.13657112
000150 a7 6a 8e bc cb 10 88 3e 64 ac 9a 3e a2 ae dd 3d
       -0.01738484 0.26575312 0.3020965 0.10824324
000160 75 05 22 bf c4 a2 4a 3e fa 90 39 3e 91 32 d5 3d
       -0.63289577 0.19788653 0.1812171 0.104100354
000170 cf 2b 5d bf 48 4e 40 bf f2 6a 5a bf ee 54 93 be
       -0.8639497 -0.7511945 -0.85319436 -0.28775734
000180 1e 11 a1 be e6 6a 1a bf e1 b6 20 bf 98 a6 76 3e
       -0.31458372 -0.60319364 -0.6277905 0.24086988
000190 c7 b6 76 3e 8e 71 28 be 81 30 be 3e 59 90 44 be
       0.24093162 -0.16449568 0.3714638 -0.1919569
0001a0 14 50 f8 be 77 a1 cd be b9 1a 75 be aa 83 ee bc
       -0.48498595 -0.4016225 -0.23935975 -0.029115517
0001b0 21 bc c2 be 35 49 40 bf c4 a0 61 be e8 87 98 3e
       -0.38034156 -0.75111705 -0.22033983 0.29791188
0001c0 5c b4 3a 3e 6d 63 35 be e7 40 ce 3c db 97 04 3f
       0.18232864 -0.17713709 0.025177432 0.51794213
0001d0 49 69 a3 bd d0 ab 0a 3f 71 cc 41 bf 13 92 38 bf
       -0.07979066 0.54168415 -0.7570258 -0.7209789
0001e0 05 77 b1 bd 35 b1 0b bd 9d 0b 87 3e 3b 29 5b bf
       -0.08665279 -0.034104545 0.26376048 -0.8560979
0001f0 cb b4 37 be 06 b7 cf be a2 91 2a bf 17 35 b3 bd
       -0.17940061 -0.40569323 -0.6662847 -0.087503605
000200 ee 78 d4 3e 02 33 d4 bd a3 61 81 3e 34 2f 3c bc
       0.41498512 -0.103612915 0.25269803 -0.0114858635
000210 a4 45 8f 3e 74 f4 2b bf 63 c4 9c bd b1 e5 ab be
       0.2798282 -0.6716988 -0.07654645 -0.33573678
000220 03 60 ce bd a2 e6 b9 3e 22 c7 41 bf 14 a9 f5 3e
       -0.100769065 0.3630877 -0.7569448 0.4798056
000230 d8 7b 6d be 66 5c 34 bf 6a 09 33 bf 84 31 f4 bc
       -0.23191774 -0.7045349 -0.6993624 -0.029808767
000240 fb c2 28 3e e5 48 80 be 89 21 46 bf 96 43 9d be
       0.16480629 -0.25055614 -0.7739492 -0.30715626
000250 7d 82 50 3e ff ab ac bd 50 6c 7f be ea 11 4c 3e
       0.20362277 -0.08431243 -0.24943662 0.19928709
000260 33 bf a4 3e 08 48 5a 3d 49 ab 3d bd 6b bf d7 be
       0.32177123 0.05329135 -0.04630593 -0.42138228
000270 ee 01 42 bd 31 89 c1 be 34 d4 99 3e 61 6c f0 bd
       -0.04736512 -0.3779998 0.3004471 -0.11739422
000280 28 1c 1c 3e 41 9c 4e 3e a7 ff 23 3f e1 b2 b4 be
       0.15245116 0.20176794 0.6406197 -0.35292724
000290 40 3e 69 bf d3 33 78 be c1 8a 40 3d 2f 5e 59 be
       -0.9111061 -0.2423852 0.047007326 -0.21227334
0002a0 cf bf c8 3e 34 ec 89 3e fb 62 3b be 4a 85 57 bf
       0.39208838 0.2693802 -0.18299477 -0.8418776
0002b0 5c f8 2f 3e bd ce 7c 3e 01 d6 1b be 75 bf b2 3d
       0.17184585 0.2468824 -0.15218355 0.08727924
0002c0 56 7f f2 3d 45 ea a4 3e 9f 45 06 3e cd f5 8e 3e
       0.11840694 0.32209983 0.13112496 0.27921906
0002d0 57 aa 67 3e dc 53 6f bf 7d 8b 8d 3d f6 8a b0 3d
       0.22623573 -0.93487334 0.06911371 0.08620255
0002e0 f7 49 47 bf 7c e5 34 be d8 1b 21 3f 83 51 93 bd
       -0.77847236 -0.17665666 0.6293311 -0.071932815
0002f0 9e 5a 90 3e 49 14 37 3d 75 70 eb 3d af 41 75 be
       0.28194135 0.04469708 0.11496059 -0.23950838
000300 52 13 b3 bd db 94 1f be 46 bc a5 bd 30 27 22 3e
       -0.087439194 -0.15584128 -0.08092551 0.15835261
000310 8b 26 f4 3e 7d 10 ac be 6b 98 40 3e 5d f6 63 3e
       0.47685656 -0.3360633 0.18808143 0.22261949
000320 fd ea 04 bf e4 c1 60 bd 40 f7 3e bf 2d f3 66 bf
       -0.51921064 -0.05487241 -0.74596024 -0.90214807
000330 d6 07 a4 bb e1 86 8a 3e ed 11 bb bd 7e 15 23 3e
       -0.005005817 0.2705603 -0.091342784 0.15926167
000340 19 9f e8 be 2c 5e 2a be e3 de b0 3e 25 16 8c be
       -0.45433882 -0.16637486 0.3454505 -0.27360645
000350 1d 96 00 3e 49 ff 8d bd 1e c1 ec 3e f8 36 98 be
       0.12557264 -0.069334574 0.46241087 -0.29729438
000360 db be d5 3c 2b 39 13 bd 26 d6 6c bf 65 5a ee bd
       0.026091984 -0.03594319 -0.92514265 -0.11638335
000370 a9 4a d6 be 56 41 98 3e 2d 62 57 be b3 c4 06 be
       -0.41853836 0.29737347 -0.21033545 -0.13160972
000380 57 34 a7 3e 16 23 3a bf dc 34 88 3e 84 63 79 be
       0.3265712 -0.72709787 0.26602829 -0.24354368
000390 5d 30 38 be 67 6e ba be de a9 7d bd 4e 4d 14 bf
       -0.17987199 -0.36412355 -0.061929576 -0.5793046
0003a0 f3 7f 1d be 70 34 b1 be 7e b0 7f 3e 2c 76 44 bf
       -0.1538084 -0.3461032 0.2496967 -0.76742816
0003b0 58 f3 78 bf 1d 93 0f bf 57 5e 05 3f 5b 44 48 bf
       -0.97246313 -0.5608385 0.52097076 -0.782293
0003c0 ad ca fe bd 6e 63 b1 be 81 dd 8f 3d bd 5f ac be
       -0.12441001 -0.3464617 0.070246704 -0.33666793
0003d0 6a 49 9a 3e bc 53 1b 3f 2b c6 ad 3c a7 93 1c be
       0.30134135 0.60674644 0.021212658 -0.152907
0003e0 b0 27 5d 3e 30 4a 18 bf b0 e0 c7 bd a7 a0 f6 3d
       0.21597171 -0.594882 -0.097596526 0.12042361
0003f0 f8 de 8f be 90 cc ea 3d 47 9d 21 bf 54 27 21 3e
       -0.280998 0.114647985 -0.6313061 0.15737659

actor_layer.2.weight f4 [256, 256]
000000 88 7a 4c 3d 4f 19 22 bd 0d 8e 81 bd da 5f 58 bb
       0.049921542 -0.039574917 -0.06325922 -0.0033016116
000010 9e 6d 28 3d 24 4c 83 3c 0e 15 11 bd dc 3a b7 bc
       0.041120164 0.016027518 -0.03542047 -0.022366934
000020 94 58 09 3d 17 91 a3 3b cf ac b1 3c 98 28 39 3d
       0.03353174 0.0049916613 0.021688847 0.04520473
000030 8d 4f 1a 3c 3c cb 8c 3c d0 6f 37 bd 30 53 35 bd
       0.00941838 0.017186753 -0.044784367 -0.044268787
000040 a4 1e fc bc 31 bd 4d bd 62 fd 5a bd 5b 10 f8 3c
       -0.03077633 -0.050229255 -0.0534643 0.030281236
000050 8e ca 12 bb 9e 84 a0 3b 9a da 77 bd 9a ca da bc
       -0.0022398564 0.0048986217 -0.06051121 -0.026707936
000060 d6 87 97 bd 9a 4e de bc 20 8d 42 3d be 21 0a 3d
       -0.073989555 -0.02713709 0.04749787 0.033723585
000070 4f 52 a5 bc 3f ce 27 bd 07 42 b2 3c ab 40 6b bd
       -0.02018085 -0.040968176 0.02176 -0.05743472
000080 36 c8 92 bd 3c 01 fa bc 04 b6 f5 bb b4 dc 00 3d
       -0.071670935 -0.030518167 -0.0074985046 0.03146048
000090 00 bb 7c 3d 13 6e e2 bb a1 16 43 bb 9c 72 4c 3d
       0.061701775 -0.0069100945 -0.0029768127 0.049913988
0000a0 d3 44 6c bd da 7c 16 bd a7 15 3c 3d 50 69 6b 3d
       -0.057682823 -0.03674016 0.045919087 0.05747348
0000b0 7f f2 bb 3c 79 dc ca bc 0a d8 13 3d 23 e3 6e bd
       0.02294278 -0.024763333 0.036094703 -0.058322083
0000c0 82 6f 7b bd d9 8a 55 3d 38 55 99 bc 47 c8 3e 3c
       -0.06138564 0.05213437 -0.018717393 0.0116444295
0000d0 87 47 2f bd fa 64 00 3d 6c 1b 26 bd 6e 3d 29 3d
       -0.042792823 0.0313463 -0.040553495 0.04131835
0000e0 b6 99 a0 3a f6 83 7b 3d 66 81 55 3d e6 81 3e 3d
       0.0012252841 0.061405145 0.052125357 0.0465106
0000f0 bd ac 1e 3d f4 90 7d bd 5e b1 8b bd 2e a7 27 3d
       0.038738955 -0.061905816 -0.068209395 0.04093092
000100 4c dc f5 bc f2 30 db bb 80 0d 9d 3b f8 cf 4a 3d
       -0.030012272 -0.0066891843 0.004792869 0.04951474
000110 33 7a 6d bd f0 1e 8f bb 40 14 34 3d 50 aa 82 3c
       -0.057977866 -0.0043677017 0.043964624 0.015950352
000120 32 d8 18 3d 45 5b 1a 3d 64 ef 1b 3d 70 ff 07 3d
       0.037315555 0.037684698 0.038070098 0.03320259
000130 dd ff 80 bd 80 d4 1a 3a 1a e7 4f bd ba 49 79 bd
       -0.06298802 0.0005906299 -0.050757505 -0.060861327
000140 a8 25 4a 3c 14 b0 1d bd f9 6f 5a 3d 46 e1 79 3d
       0.0123380795 -0.038498 0.05332944 0.061005853
000150 3b bd fc 3c dd 04 15 3d 1e bf 90 bc bc 3d 8b 3c
       0.03085195 0.03638159 -0.017669257 0.01699721
000160 48 6d 23 bd 19 07 d3 3b 67 8b 38 3c 41 ca c9 bb
       -0.03989914 0.006440055 0.011263705 -0.0061581437
000170 9c c9 08 3d 8e 24 45 bd f0 c4 cb 3b f0 26 9a bb
       0.033395395 -0.048130564 0.006218545 -0.0047043487
000180 41 fb 5e 3c f8 05 08 3c ca 62 65 3d 03 5c 6b bd
       0.013609708 0.008302204 0.056002416 -0.057460796
000190 08 c6 4d bd 4c c1 06 3d cc 1f 0a 3c a8 41 c9 3c
       -0.050237685 0.032899186 0.0084304325 0.02456744
0001a0 b0 27 b4 3b 6a 94 51 bd 14 c5 8a bc 92 51 43 bd
       0.005497895 -0.05116693 -0.016939677 -0.047685213
0001b0 3c 4d b4 bc 2c bf 56 3d 3c 05 8a 3c a5 36 91 3c
       -0.022009484 0.05242841 0.0168482 0.017726252
0001c0 93 5c 67 bd d9 bc 55 3d 32 fb e4 3c cd bf 99 3a
       -0.05648477 0.052182052 0.02795181 0.0011730135
0001d0 77 93 39 3d c9 d1 cb bc 45 d0 13 3d 0a 60 df bb
       0.04530665 -0.024880307 0.036087293 -0.0068168687
0001e0 76 7d 13 bd d5 bb 9f 3b cb 60 e2 bc c0 56 bd bc
       -0.03600832 0.0048746862 -0.027634045 -0.023112655
0001f0 e4 a5 73 bd 75 35 1f 3d 08 9b b6 bc d9 28 44 bd
       -0.059484378 0.03886934 -0.022290722 -0.047890518
000200 9f 08 24 bd 9d f4 9e 3c 80 6c 30 bd b7 b2 39 3c
       -0.040047284 0.01940375 -0.043072224 0.011334113
000210 0e 85 a8 3c b4 d9 60 bd 3d 65 13 3d 00 e9 68 ba
       0.020571258 -0.054895118 0.03598522 -0.00088848174
000220 b5 f6 04 bd ee 3d 2b 3d 08 7c a4 bc 52 91 d9 bc
       -0.03246184 0.041807108 -0.020078674 -0.026558552
000230 04 31 07 3d bc 52 e2 3c 7e 55 1f bd 6d 9f 08 bd
       0.03300573 0.027627341 -0.03889989 -0.033355165
000240 cc 91 03 bd 98 1c 30 3d 80 99 98 ba 98 e1 66 3c
       -0.032121465 0.04299602 -0.0011642426 0.014091872
000250 b2 4f 59 bd 93 49 7f 3b 56 e0 05 bd 99 da 4f bd
       -0.05305452 0.0038953766 -0.032684647 -0.05074558
000260 75 c9 17 3c 45 75 1e 3d f3 39 66 bd 9a fe 5c bd
       0.00926434 0.038686056 -0.05620761 -0.053953744
000270 d0 e5 cd 3b 00 19 1d 3b c9 01 c4 bb 40 4f f0 3b
       0.0062834993 0.00239712 -0.005981658 0.007333666
000280 67 41 3c 3c d3 9a ff 3a f1 59 d0 3c 08 d9 36 bd
       0.0114902025 0.0019501097 0.025433512 -0.04464057
000290 e0 64 b3 3b 68 0d 46 bc bf 06 29 bd f5 a5 06 bd
       0.0054746717 -0.012088157 -0.0412662 -0.032873113
0002a0 23 ed 64 bd c0 56 5c bd 90 fe 34 bc 40 08 bd bc
       -0.055890214 -0.05379367 -0.011047021 -0.023075223
0002b0 30 eb 16 3d d3 b2 fb 3c 24 99 8b 39 e5 37 16 3c
       0.036845386 0.030724918 0.00026626245 0.0091686
0002c0 87 02 2e bd b4 cf fe bc f3 8c ed bc 15 ac 12 3d
       -0.04248288 -0.0311049 -0.028997874 0.03580864
0002d0 e4 7c fe bb 54 99 53 bd a6 dd 4b 3d e0 e8 27 3c
       -0.007766353 -0.051659897 0.049771927 0.010248393
0002e0 4d 24 83 bd 75 f6 03 bc 98 cc 49 3c 81 a9 43 bd
       -0.06403408 -0.008054365 0.012316845 -0.047769073
0002f0 6a 6c 52 bd e6 34 29 bd be f1 38 3c 38 41 4e 3d
       -0.051372923 -0.041310214 0.011288105 0.050355166
000300 a0 7d 9d bc 20 db 52 bd fd 90 13 3d 95 4a 03 bd
       -0.019224942 -0.051478505 0.036026943 -0.03205355
000310 22 4e d9 bc 60 16 c2 3b ae 70 4e bd d9 ba 4d bb
       -0.026526514 0.0059230775 -0.05040043 -0.0031391887
000320 38 92 1e bd 00 61 4d 3d 48 8a 6e 3c 02 b2 39 3d
       -0.038713664 0.050141335 0.014559336 0.045335777
000330 e0 63 3e 3d 86 ca ae 3c 3d 62 87 bd c4 24 08 3d
       0.046481967 0.021336805 -0.06610534 0.033238187
000340 e0 8f 1c 3d 85 a6 1b 3c dd 0f 8f bd 74 f9 76 bd
       0.038223147 0.009500151 -0.069854476 -0.06029649
000350 47 82 80 bd 52 75 e6 3c 08 54 c8 3c b0 23 48 bd
       -0.062748484 0.028132115 0.024454132 -0.04886216
000360 3c da 0c 3d 78 01 49 3d aa a5 65 bd a0 f3 33 bd
       0.034387812 0.049073666 -0.056066193 -0.04393351
000370 c0 c1 ba 3c 86 47 16 bd a5 c2 82 bd f9 5e c8 bb
       0.022797465 -0.036689304 -0.06384782 -0.0061148372
000380 d0 69 38 bd 56 90 22 3d cd e3 13 3d 46 01 a9 3b
       -0.045022786 0.03968843 0.03610592 0.0051576225
000390 08 29 55 3c f0 ff 1f 3d a9 fe 43 bc 3c df 55 3d
       0.013010271 0.03906244 -0.011962571 0.052214846
0003a0 84 76 d0 bc 40 ed 08 bb 27 c5 25 bd f0 4f bf bc
       -0.025447138 -0.0020893365 -0.040471222 -0.023353547
0003b0 96 e6 7e 3d a0 cc e2 3c 45 1d 83 bd 70 b2 c3 bb
       0.062231623 0.027685463 -0.06402067 -0.005972199
0003c0 00 8f 1b bd dd f3 9b 3c c0 4f b0 ba 20 af 17 3b
       -0.037978172 0.019037182 -0.0013451502 0.0023145154
0003d0 ac bf 8c 3b f0 c7 c6 3c 4c 8d 7e bd 08 fe 1c bc
       0.00429531 0.02426526 -0.06214647 -0.00958205
0003e0 db 8f e9 bc 60 ec 3b bb b4 61 08 3d 71 74 d6 3c
       -0.028510978 -0.0028674826 0.033296302 0.02617857
0003f0 00 d8 24 bc 10 8e 4c 3d 00 b2 29 3b 69 3d de 3b
       -0.010061264 0.04994017 0.002589345 0.006782223

actor_layer.2.bias f4 [256]
000000 45 df 84 bd d8 6f 34 bd a8 04 43 39 c7 41 0a 3e
       -0.06487898 -0.044051975 0.00018598384 0.13501655
000010 7d d7 81 bd 92 f9 51 bd 99 5d 4f bd d6 15 11 bd
       -0.06339929 -0.0512634 -0.05062637 -0.035421215
000020 06 07 27 3d ed ac 8c bd b9 2d 4b bd 80 ce 41 3d
       0.040778182 -0.068689205 -0.04960415 0.047316074
000030 11 da 50 3d 56 b9 2e 3d eb b6 69 bd 17 9a 2e bb
       0.050989214 0.04265722 -0.05705921 -0.0026642138
000040 35 ca 81 bd 19 df c8 bd dc 8c 8f 3c 37 b4 a6 bd
       -0.06337396 -0.098081775 0.017523222 -0.08139842
000050 2e af 95 bb ae 20 1a bc df 25 b5 3b df 6a 36 3d
       -0.004568002 -0.0094072055 0.005528196 0.044535514
000060 4c 91 f5 bc 56 de 13 bd ea 05 e1 3c a5 36 11 3d
       -0.02997651 -0.036100708 0.02746864 0.035452504
000070 7a 27 64 3b f6 4a 91 bb 56 5b 94 bd d1 f6 df 3c
       0.003481357 -0.004433985 -0.072439834 0.02733937
000080 c4 51 74 bd 85 81 84 bd e2 2e d9 bb 16 7c 1a bc
       -0.05964829 -0.064700164 -0.0066279033 -0.009428998
000090 7c 87 06 3c 31 2a 40 bd 63 c7 63 bd 71 1f 47 bd
       0.008211013 -0.046915237 -0.055610072 -0.04861397
0000a0 46 e2 01 bd 00 f3 63 bd 24 35 0b 3d 1e a1 95 bd
       -0.03170993 -0.055651665 0.033986226 -0.07306121
0000b0 37 b9 3a 3d af 9c af bd ef 56 ab bc 85 1d 84 bd
       0.04558679 -0.08574807 -0.020915477 -0.06450943
0000c0 1b 94 61 bc ce 32 a4 3b e8 61 c1 3c 12 4f 63 3c
       -0.013768221 0.005010939 0.023606256 0.013873832
0000d0 a8 e5 c3 3c d7 19 21 bd 75 8b 99 3c 25 aa 84 bc
       0.02391322 -0.039331283 0.018743256 -0.016194412
0000e0 04 a3 74 bd 19 dc d5 3b 90 85 43 3d c2 fe 6c 3c
       -0.059725776 0.006526482 0.047734797 0.014465036
0000f0 b1 04 40 bd f8 f4 29 3d 3d 1d 06 bd bb 13 80 bd
       -0.046879474 0.041493386 -0.032742728 -0.06253763
000100 cb 68 69 bd 75 e3 1b 3d 52 5d d1 bc 04 6b 0e 3c
       -0.056984704 0.038058717 -0.025557194 0.008692507
000110 83 1d 6b bd e6 f3 18 bd 72 49 59 bd 3c b4 0a 3d
       -0.05740119 -0.037341975 -0.05304856 0.03386329
000120 88 b6 c2 3c d6 d7 92 bc 87 b5 a5 39 9c 67 77 bd
       0.023768678 -0.017925184 0.000316065 -0.060401544
000130 27 62 29 bd ee f7 a1 3d 70 9e cf 3b 3e c0 a1 39
       -0.04135337 0.07908617 0.006336026 0.00030851545
000140 40 e3 30 bc 63 ba 61 bd 64 65 04 3d 58 48 c5 3c
       -0.010796368 -0.055109393 0.032323256 0.024082348
000150 53 1f 6c bd 46 b2 98 bc 19 fa 50 3d a9 9d cf bc
       -0.05764706 -0.018639695 0.05101976 -0.025343733
000160 f2 d6 d0 bb 65 98 08 bd 8a d3 1b bd f2 5e e4 39
       -0.0063732797 -0.03334846 -0.038043536 0.0004355829
000170 95 8b 8d bd 60 8c bf bb 17 20 21 bd 2e c2 16 bd
       -0.06911389 -0.0058455914 -0.039337244 -0.036806278
000180 1e 1a 1f bc 2d 2c 16 3d d5 a3 8a bd 80 90 43 3d
       -0.009710817 0.036663223 -0.0676953 0.047745228
000190 ae b1 1f bd 25 44 95 3c 69 b5 ca ba 49 7b 4f bc
       -0.038987808 0.01822097 -0.0015465441 -0.012663671
0001a0 4c 0d 0b 3c ae 1f 96 bd 2d 48 89 bd 25 f6 08 bd
       0.008487057 -0.07330261 -0.067032196 -0.033437867
0001b0 b8 8f 9f bd 27 03 3d 3c 74 55 09 3d ed 1c 8b bd
       -0.07791084 0.011536396 0.03352876 -0.067926265
0001c0 7a b4 d9 bc 3e a2 28 bd 5d 2f 10 3c 6d 0a 8d 3e
       -0.026575316 -0.04117035 0.008800355 0.27547017
0001d0 cd 2d 10 3d 12 79 dc bc 0d 12 9e 3c 36 f5 97 bd
       0.03519993 -0.0269132 0.019295717 -0.07419817
0001e0 ec cb 8b 3c c7 e1 a7 bd f5 e2 80 bc 6d 6d 88 bd
       0.017065011 -0.081973605 -0.015733222 -0.06661496
0001f0 09 d0 c4 bc e6 52 1e bd aa ec 5f bd 80 0f b3 bd
       -0.02402498 -0.038653277 -0.05466906 -0.08743191
000200 49 f8 49 3e ee aa 1d bd 66 3d 93 bc 1d a3 84 bd
       0.1972362 -0.03849309 -0.017973613 -0.06476424
000210 5c 02 8b 3b b4 87 0a 3d e5 12 18 3d ac 35 f1 bc
       0.0042422246 0.033820823 0.037127394 -0.029444538
000220 2e f5 9a bd 72 f9 fd 3d 2f 53 b5 3c 11 f7 47 bc
       -0.075662956 0.124010935 0.022134392 -0.012204901
000230 59 f8 49 bd 37 80 b7 ba dd a6 13 3d b4 f9 77 bb
       -0.04930911 -0.0014000003 0.036047805 -0.0037838044
000240 00 c6 38 bd a7 54 a5 bd 64 90 01 3d e0 3e b5 bc
       -0.045110703 -0.08072787 0.031631842 -0.022124708
000250 d2 7c 52 bc a0 7d 36 bd 62 45 e8 3a 07 e9 2b bd
       -0.012847142 -0.0445534 0.0017720873 -0.04197028
000260 9e 10 ab 3c bc f8 70 bd e9 2f da 3c 55 9a 16 3d
       0.020881947 -0.05883096 0.026634173 0.036768276
000270 25 60 88 bd 57 6c 26 bd 00 63 bc bd ff ff a6 bd
       -0.06658963 -0.040630665 -0.0919857 -0.08154296
000280 cd da 08 bb 26 70 2f 3d bc 53 7f bd a0 d9 40 3d
       -0.0020882369 0.042831562 -0.062335715 0.047082543
000290 5f de a9 bd b3 6c e9 bd 06 d0 92 bc 00 1d 06 bb
       -0.08294367 -0.11397686 -0.017921459 -0.0020464063
0002a0 a9 75 45 bd 84 34 7c bd 04 3e 09 3d aa 83 bc 3d
       -0.048207913 -0.06157352 0.03350641 0.092048004
0002b0 3b 35 69 bd 1e c2 9c bd 16 78 23 3d 0c 90 89 3b
       -0.05693553 -0.076542124 0.039909445 0.00419808
0002c0 5d 9c 9b 3b 07 d7 ae bc 55 fb 0a bd 8d 4f 81 bd
       0.0047488646 -0.021342767 -0.033931095 -0.06314001
0002d0 32 93 54 bc 16 6d 10 bd 47 e1 3e 3c cf d5 bf 3c
       -0.012974547 -0.035260282 0.01165039 0.023417382
0002e0 de 17 16 bd 2a 87 d9 bd cb f7 e6 bc b1 99 4c bd
       -0.036643855 -0.106214836 -0.028194329 -0.04995126
0002f0 e7 41 25 bc af 2b 2d bd e0 c9 bb bb f4 88 76 bd
       -0.010086513 -0.042277988 -0.0057308525 -0.060189202
000300 af 99 bc 3c 90 ac b0 bc 62 4f 5e bc ee 44 95 bc
       0.0230225 -0.02156666 -0.013568731 -0.018221345
000310 d5 a0 17 3d 5b 4f 61 bd dc fe 7c bd 48 30 4f 3c
       0.037018616 -0.05500732 -0.06176649 0.0126457885
000320 f4 2a f5 bc a6 0f a4 3c 25 14 84 bd c8 16 b4 bb
       -0.029927708 0.020026993 -0.06449155 -0.00549588
000330 30 2a c0 3c a7 86 a5 bc 2f 58 b0 3c 71 ef ce bc
       0.023457617 -0.020205809 0.021526424 -0.025260659
000340 97 19 a0 bd 7a ec 58 bd fb 3e 77 3c 94 97 0b 3d
       -0.07817381 -0.052959897 0.015090699 0.034080103
000350 66 38 98 bd 8e e2 27 3c f8 77 c8 3c 41 d1 cc bc
       -0.07432632 0.010246886 0.024471268 -0.025002124
000360 c7 7a 34 3c a3 29 f6 37 5d 49 14 3d 05 63 87 bd
       0.0110156005 2.9344874e-05 0.036202777 -0.06610683
000370 ee ec 7f 3d 01 4f 50 3c 1d c4 8b bd e9 1f cc bb
       0.062481813 0.0127141485 -0.06824515 -0.00622939
000380 3b 25 f4 3b ff 24 3e 3d 00 a2 3e bd c5 a1 08 bd
       0.0074507273 0.046422 -0.046541214 -0.0333574
000390 68 20 35 bd 1c 49 7a bc cd 32 8b bd 2a a8 60 3d
       -0.044220358 -0.01527622 -0.06796799 0.054847874
0003a0 0c 84 0b 3c 41 7a 4e bd d6 7e 25 3c 77 29 21 bd
       0.008515369 -0.05040956 0.010101041 -0.039346185
0003b0 12 34 5b bc db da 69 bd 39 ee 46 ba cf 98 2c 3c
       -0.013379114 -0.057093482 -0.00075885985 0.010534479
0003c0 65 97 84 bd 2c 7d 8a 3c 45 7b 84 bd 3b 19 a1 3c
       -0.06474189 0.01690539 -0.06468824 0.019665351
0003d0 7e 52 ac 3a af 1b b8 3c 36 06 91 bc af 87 26 bd
       0.0013147143 0.022474138 -0.017703157 -0.04065674
0003e0 f5 65 19 3d 9c fd 77 bc d8 f7 47 3b 16 f1 85 3d
       0.03745075 -0.015136149 0.0030512717 0.06540124
0003f0 5d 59 89 bd 76 39 2f 3c 6d ea 08 bd 33 05 f4 3c
       -0.06706498 0.010694852 -0.03342669 0.029787635

actor_layer.4.weight f4 [1, 256]
000000 c2 ec d6 3b ab 91 ea bb 91 cb 48 bc 96 3a 18 be
       0.0065589854 -0.0071584783 -0.012255565 -0.14866099
000010 84 12 71 3b d9 cc 4a 3c 51 0e c1 3c 7c ce f6 39
       0.0036784718 0.012377941 0.023566397 0.0004707462
000020 3a aa e2 bb c7 4c 2b bc e8 2d 39 3b 8c 6b f4 3b
       -0.0069172652 -0.010455317 0.0028256122 0.0074591096
000030 8b 16 65 3a b5 fe 0b 3c 1a d1 db bc 65 4e 0c bd
       0.0008739016 0.008544614 -0.026833106 -0.03425445
000040 65 91 85 3b b4 74 70 3b 01 48 cd 3b 77 a6 a1 3c
       0.0040761703 0.0036690654 0.006264687 0.019732697
000050 8d ff 85 3b 7b 73 e8 3b 18 dc bc bb bb 53 e6 bb
       0.004089302 0.0070938445 -0.005763542 -0.0070290244
000060 f2 f0 d4 3b 1d e2 06 3c f0 af 31 bc 1c e3 71 3b
       0.0064984495 0.008232621 -0.010845169 0.003690905
000070 72 0a d7 3b f5 a1 0f 3c 99 eb c8 3c 89 f1 cd bb
       0.0065625245 0.008766641 0.024526404 -0.0062848968
000080 16 b2 11 bc 1a 85 57 3b d9 85 c1 3b b6 a8 91 3b
       -0.008892557 0.0032885731 0.0059058485 0.0044451607
000090 59 80 44 bb 58 d5 ba 3b fb 86 6b 3c fd dd 02 3b
       -0.0029983728 0.005701702 0.014375444 0.001996874
0000a0 88 97 1a bb 48 23 1f ba 78 ab 35 ba d2 ec 50 3c
       -0.0023588855 -0.0006070626 -0.0006930153 0.012751775
0000b0 ff 44 a8 3c ad 48 0b bc 4f 70 20 3b 03 90 73 3a
       0.020540712 -0.008501214 0.0024481004 0.0009291174
0000c0 b2 29 d7 3b 45 00 0c 3c b3 00 e2 3b 32 56 5a bc
       0.0065662498 0.008544986 0.006897056 -0.013326215
0000d0 c2 ba 56 bc 53 c5 e1 bc fe d0 99 3b fd 5a 83 3c
       -0.01310605 -0.027559912 0.0046941033 0.016034598
0000e0 34 87 08 3c 31 88 c1 3b db 8e e5 3b cb a0 e8 3c
       0.008333016 0.005906128 0.007005555 0.028396985
0000f0 b0 2a c2 3b 4a 18 ff 3a 91 66 dd bb 56 f8 97 38
       0.005925499 0.0019462195 -0.0067566116 7.246497e-05
000100 02 c2 5a bb fc 50 f4 3b 82 a0 d1 bb 72 25 5f bb
       -0.0033379798 0.007455943 -0.006397308 -0.0034049419
000110 bd 29 86 bb 38 2d c9 3b 5d 96 9c 3b 2d 8e 0e 3c
       -0.004094331 0.0061394237 0.004778667 0.00870089
000120 11 a7 cc bc 57 c4 a8 bc 15 f3 1b b8 9c e0 00 ba
       -0.024982007 -0.020601435 -3.7181268e-05 -0.0004916282
000130 d5 28 12 ba 3c 3c 98 bd 50 93 48 ba 7d da 0d 3c
       -0.00055755425 -0.07433364 -0.0007651346 0.008658049
000140 1a b9 5f bb a6 a3 9c 3b ae 44 94 bb 10 2d bf bb
       -0.0034137429 0.0047802506 -0.004524789 -0.0058342293
000150 9d 7d 84 3c bb 44 f5 3b 72 67 54 3b 9f 9f 28 3c
       0.016173178 0.007485 0.003241029 0.010291963
000160 24 d6 85 ba 8f 5d 00 bc d2 c5 ef be f8 8e 40 bb
       -0.0010210914 -0.007834806 -0.46830612 -0.002938209
000170 15 c9 09 3c ad 3a 05 3c 30 dd 37 bc 8c 1a f5 bb
       0.008409758 0.008131665 -0.011222169 -0.0074799713
000180 b1 2b c6 bc 88 6e 35 bb 0c 84 0b 3c 20 86 bf 3b
       -0.024190756 -0.002768429 0.008515369 0.0058448464
000190 6d f3 93 3b c6 d8 9c bc b5 94 0c 3c 12 dc d8 bc
       0.0045151026 -0.019146334 0.008580376 -0.026472125
0001a0 2c a1 8f b9 f2 1b d2 3c 5a 8d df 3b b0 ab b9 bc
       -0.00027395168 0.025648091 0.0068222703 -0.022664875
0001b0 bf 3c b9 bc 36 f4 13 bc 3d 25 0d 3c d6 8d 16 3c
       -0.022611974 -0.009030392 0.008614835 0.00918909
0001c0 33 50 74 bb 48 a3 13 3f 8c fd fd 3b f0 d1 56 be
       -0.0037279248 0.5767102 0.0077511724 -0.20978522
0001d0 35 8f 8f 3c 9c 6a 03 3c 61 00 ce 3b 62 92 57 bc
       0.017524341 0.008021023 0.0062866663 -0.013157459
0001e0 9d 9a 94 3b b0 b9 bf bb ec 76 fc 3c 69 eb 41 3c
       0.004535033 -0.005850993 0.030818425 0.011835911
0001f0 f6 45 af ba 65 c0 12 bb aa 6c d3 3c 38 ba be bc
       -0.001337229 -0.0022392508 0.025808651 -0.023282155
000200 6f f8 37 bf c2 5b d1 bb 76 d4 11 3c c3 32 f5 3b
       -0.71863455 -0.006389112 0.008900752 0.007482858
000210 a3 95 e4 3b 79 e0 c1 3b 64 4f 77 bc 95 76 84 bc
       0.006975846 0.005916652 -0.015094612 -0.016169826
000220 b2 e3 51 3c b9 75 a2 3e 7d 87 06 bd 89 ef 45 bc
       0.012810634 0.3173044 -0.032844055 -0.012081035
000230 b5 bf 89 bc 4d 25 07 ba f9 3f 49 3c 15 77 86 3c
       -0.016815046 -0.00051553996 0.012283319 0.016414205
000240 e2 ec e3 ba 55 5a 90 ba 51 15 44 3c ac 9b 79 bb
       -0.0017389322 -0.0011013249 0.011967973 -0.0038087172
000250 c7 6e b6 3b d4 da 85 bb c8 6f ba bb 44 f2 85 3a
       0.005567405 -0.0040849242 -0.005689595 0.0010219296
000260 93 a9 ef 3b 75 f0 04 3c 44 3f f5 ba a6 93 0e bc
       0.007313916 0.00811397 -0.0018710871 -0.008702194
000270 b6 76 91 3b 72 b4 dc 3b 79 8a c7 3c 63 71 e9 bc
       0.0044392003 0.006735378 0.024358021 -0.02849645
000280 47 c8 25 bc 17 10 2c 3b 16 fb 22 3b 8f 39 27 bb
       -0.010118551 0.0026254707 0.0024868897 -0.0025516485
000290 41 b4 d5 bb 05 23 81 bc 25 2a 11 3c 23 e1 c8 3a
       -0.006521732 -0.015763769 0.008860146 0.0015325885
0002a0 8b fd e4 3b a5 59 07 3c 7b 8d ec 3c 05 ef e4 bd
       0.0069882325 0.008261119 0.028876057 -0.11178402
0002b0 c4 82 70 ba d9 13 d4 3b ea c0 5f bc bc 24 72 3a
       -0.0009174759 0.0064720926 -0.013656834 0.0009237041
0002c0 2f e2 b2 bb 37 74 39 bc 5f 02 a4 bc 05 5c 04 bc
       -0.005459092 -0.011319212 -0.020020662 -0.00807858
0002d0 70 f7 3c bc da 01 57 bc 97 0a 2f bc 06 cb 17 bc
       -0.011533603 -0.013123 -0.010683677 -0.009264713
0002e0 f3 09 ee 3b a2 d1 da bc 9a 0f dc 3b 06 dd 96 be
       0.0072643696 -0.026711289 0.006715727 -0.29465503
0002f0 49 72 dd 3b d1 d1 48 bb 12 86 5e bc 1d 2d 07 bb
       0.0067580086 -0.0030642638 -0.01358177 -0.0020626255
000300 de c2 1f 3c b6 7b a5 3b 2d 59 02 bc 43 80 ff bb
       0.00975105 0.005050148 -0.0079558315 -0.0077972724
000310 4a 49 e8 bb 5c b6 06 39 a2 94 00 3d cb f1 e7 3b
       -0.007088815 0.0001284717 0.031391747 0.0070783845
000320 d9 2d d8 3b de f2 97 bc 22 a0 dc 3b 70 22 3a bc
       0.0065972623 -0.018548425 0.0067329565 -0.01136075
000330 bb 45 00 3c d0 55 b3 3b 4a fb 5b 3b 1f 82 2f bc
       0.007829125 0.005472876 0.0033566528 -0.010712176
000340 13 cd e7 3b 23 39 e9 3b fc 7b f1 3c ba ed dd 3b
       0.0070740073 0.007117407 0.029478066 0.006772724
000350 75 4e 06 bc 81 8b c8 3c a3 a3 ea ba 9b f7 78 bb
       -0.008197417 0.024480583 -0.0017901551 -0.0037989381
000360 cf 9d 27 bc 77 6b af 3b 35 09 04 bc 39 3e c2 bb
       -0.010230496 0.005353387 -0.008058836 -0.0059278277
000370 cf 7e da 3e df db b8 bb 40 f9 bd 3c da 93 80 bc
       0.42674872 -0.005641445 0.02319014 -0.015695501
000380 6d e9 84 bc bc ae f4 bb 69 44 c8 bc 29 25 c8 bb
       -0.016224587 -0.007467119 -0.024446683 -0.0061079455
000390 93 42 fc 3b d5 c6 80 bb 35 86 1d ba b2 a2 e0 3a
       0.007698366 -0.0039299526 -0.0006009073 0.0017138331
0003a0 f7 cc be 3b c7 65 2b bc 69 44 48 bb 29 a7 43 bc
       0.0058227736 -0.010461277 -0.0030558354 -0.01194171
0003b0 fd 02 01 3c ba 0b 59 bc 8f d5 a5 3c ba fb e3 3b
       0.007874248 -0.013247425 0.020243434 0.0069574984
0003c0 94 ee f0 3b 1d 30 1e 39 23 cb 72 bb e8 ad 11 3f
       0.0073526595 0.00015085978 -0.0037047348 0.56905985
0003d0 56 cc 96 bb e9 45 ce 3b b7 a6 a2 3c 9b 90 ec bc
       -0.0046019955 0.006294955 0.019854886 -0.028877547
0003e0 07 0d bf 3b 58 71 ba bc 68 db 33 bb 0d 9c 21 c0
       0.0058304104 -0.022759125 -0.0027444009 -2.5251496
0003f0 85 8a 0f 3c bc 0f 02 3a 6d 63 12 3a 80 4d 31 3c
       0.008761053 0.0004961451 0.00055842736 0.0108217
